SceneR2/saved_models/CanModel_31May.pt (torch_old, 23376 bytes, 10 tensors)

l1.weight_ih_l0 f4 [80, 4]
-0.010884295 -0.3398744 -0.4440467 -0.1291543 -0.19769527 -0.2687544 -0.09660117 0.11554705
0.35300845 -0.05466249 -0.0016882458 0.17009328 -0.12630062 0.049724035 -0.20615226 -0.053119186
0.10419072 -0.33765522 -0.24446167 0.3904415 -0.37948793 -0.25745395 -0.19924761 0.29228333
-0.17024262 -0.16817465 -0.26333627 -0.15467028 -0.22823384 -0.19055383 -0.2894212 -0.15479437
0.06858709 -0.006063124 -0.31206918 0.09096856 0.3529107 -0.30159235 0.020745667 -0.08803665
0.34544635 -0.100483745 0.044369094 0.27135718 -0.012643878 -0.30320477 -0.34537226 -0.10070716
0.08452154 -0.041737534 -0.1646611 0.3918286 0.27161172 -0.26236844 -0.31677437 0.13797086
0.0075629037 -0.11997529 -0.29789352 0.3464596 0.11264703 -0.1367149 0.06480988 0.16579543
-0.31503928 -0.16171469 -0.07171707 0.07049527 -0.15702723 0.06092144 0.038046274 -0.22577561
-0.046382345 0.013680693 -0.105351366 0.302137 -0.39778575 -0.22050206 -0.2025946 -0.070747115
0.17423335 -0.21267264 -0.18918902 0.028095096 0.018943042 -0.14218037 0.21440846 -0.10352324
0.086465806 0.20381096 -0.16514611 0.094771326 -0.020621493 -0.042645127 -0.037887603 -0.16665666
0.21565756 0.018799335 0.2084578 -0.07994643 0.09344709 -0.07696132 0.1348333 -0.15177992
0.042120695 0.14928705 0.057947546 -0.14094302 -0.114588924 0.12824753 0.22357932 -0.17689332
0.13863888 0.18550897 -0.102644876 -0.12804693 0.13839224 0.12594205 -0.14492226 0.0021719784
-0.122684486 -0.058966264 0.07007897 0.1824596 -0.1631398 0.06871647 -0.016000614 0.11125776
-0.19223587 0.0029772073 -0.13299721 -0.10175152 -0.08524975 0.12256399 -0.01529108 0.007896259
0.11531633 0.21270427 0.08903843 -0.17941545 0.17777514 -0.08691652 -0.0089235455 -0.17870982
-0.117854364 0.06201449 -0.22050415 0.10224047 -0.11951349 0.06450346 -0.09441993 0.12189272
-0.05085814 0.09897953 -0.17461134 0.09933889 -0.15003179 -0.09556541 -0.091123 -0.039083764
-0.7238197 -0.0677804 0.18458043 -0.0032844828 0.13684076 0.019225555 -0.16708755 0.23196888
-0.40402538 0.09194009 -0.07793978 -0.090749756 0.36703855 0.018819194 0.17987981 0.20918812
-0.23263188 -0.25478166 0.012608602 0.06801353 -0.27001458 0.045952596 0.07005273 -0.10387973
0.6508824 -0.1102157 -0.017212214 0.021305148 0.5601672 0.15371265 -0.1979062 -0.053253192
-0.14285772 -0.16603121 -0.15612336 0.15229107 -0.41677263 -0.05837489 -0.058024324 -0.17614232
-0.52962655 -0.16774577 0.0048011392 0.19122669 0.21183805 0.03220577 0.12652925 -0.22726363
0.55279404 0.011207668 0.18735996 -0.008380786 -0.38241953 -0.18481866 0.019228775 0.2912869
-0.5516922 -0.044850934 -0.1588332 0.10221647 0.20035169 0.11053778 0.22786881 -0.14254397
-0.6462637 0.050351337 -0.04366018 -0.25058877 0.11173903 0.21116625 0.05487121 0.25247163
-0.3952711 -0.029328058 0.25580898 0.07375257 0.38944963 -0.08366856 -0.14166059 0.34276393
-0.21019961 -0.40466073 -0.2600626 -0.22010478 0.027945329 0.12415458 -0.078514665 -0.0065008434
0.14360107 -0.38032186 0.031136623 0.42191112 -0.12033748 -0.22564423 -0.24096446 -0.030660927
00000000: 0b54 32bc 0404 aebe 175a e3be 0641 04be
00000010: a170 4abe 2d9a 89be d6d6 c5bd efa3 ec3d
00000020: 86bd b43e c6e5 5fbd 2148 ddba ef2c 2e3e
00000030: f354 01be 6eab 4b3d 9419 53be 8193 59bd
00000040: f261 d53d 25e1 acbe 2954 7abe f3e7 c73e
00000050: 3e4c c2be 01d1 83be 9107 4cbe 29a6 953e
00000060: 1554 2ebe fa35 2cbe 03d4 86be e361 1ebe
00000070: 22b6 69be 8b20 43be 042f 94be 6a82 1ebe
00000080: 6377 8c3d 2cad c6bb 88c7 9fbe b94d ba3d
00000090: b6b0 b43e 506a 9abe d1f2 a93c 8f4c b4bd
000000a0: 58de b03e 6cca cdbd 5ebc 353d 54ef 8a3e
000000b0: 4528 4fbc a83d 9bbe a2d4 b0be 8e3f cebd
000000c0: a119 ad3d faf4 2abd eb9c 28be c29d c83e
000000d0: b110 8b3e 2855 86be 4030 a2be 3c48 0d3e
000000e0: 3cd2 f73b 9bb5 f5bd 8085 98be 2763 b13e
000000f0: 7cb3 e63d fefe 0bbe 0bbb 843d 47c6 293e
00000100: d44c a1be 8998 25be 66e0 92bd d35f 903d
00000110: bfcb 20be c388 793d 69d6 1b3d b931 67be
00000120: 6afb 3dbd fc24 603c 75c2 d7bd b3b1 9a3e
00000130: 93aa cbbe 4bcb 61be f574 4fbe dde3 90bd
00000140: 3a6a 323e dbc6 59be c4ba 41be b027 e63c
00000150: 702e 9b3c bb97 11be e48d 5b3e fe03 d4bd
00000160: fc14 b13d d2b3 503e 101c 29be 7817 c23d
00000170: 68ee a8bc a8ac 2ebd 0830 1bbd 0ba8 2abe
00000180: 56d5 5c3e 1001 9a3c f675 553e f4ba a3bd
00000190: 3061 bf3d e69d 9dbd be11 0a3e 326c 1bbe
000001a0: c086 2c3d b4de 183e 685a 6d3d 5e53 10be
000001b0: 99ad eabd 5253 033e faf1 643e 8623 35be
000001c0: 5af7 0d3e 10f6 3d3e 7a37 d2bd bc1e 03be
000001d0: b2b6 0d3e f4f6 003e 8066 14be c057 0e3b
000001e0: 0142 fbbd 9c86 71bd 9085 8f3d b0d6 3a3e
000001f0: 1f0e 27be 38bb 8c3d b813 83bc 1cdb e33d
00000200: 7bd9 44be 401d 433b 6c30 08be 1a63 d0bd
00000210: 6c97 aebd d402 fb3d 7087 7abc 505f 013c
00000220: f82a ec3d 26cf 593e c859 b63d afb8 37be
00000230: b00a 363e 4a01 b2bd 1034 12bc b5ff 36be
00000240: a15d f1bd e802 7e3d d7cb 61be 7463 d13d
00000250: 7dc3 f4bd 641a 843d 3c5f c1bd e4a2 f93d
00000260: a050 50bd c8b5 ca3d 51cd 32be 3072 cb3d
00000270: efa1 19be ccb7 c3bd b29e babd 4c16 20bd
00000280: 3f4c 39bf 73d0 8abd a702 3d3e 7a40 57bb
00000290: fc1f 0c3e e97e 9d3c 0019 2bbe 4089 6d3e
000002a0: 6adc cebe 164b bc3d e49e 9fbd 02db b9bd
000002b0: 7aec bb3e b62a 9a3c 6a32 383e 6935 563e
000002c0: 0d37 6ebe be72 82be 4f94 4e3c ad4a 8b3d
000002d0: 5a3f 8abe ca38 3c3d ce77 8f3d e5be d4bd
000002e0: 3ba0 263f c5b8 e1bd a100 8dbc 2288 ae3c
000002f0: 1e67 0f3f d966 1d3e eca7 4abe 0520 5abd
00000300: 4b49 12be 1604 2abe cdde 1fbe 31f2 1b3e
00000310: 3963 d5be 821a 6fbd eaaa 6dbd a75e 34be
00000320: 9b95 07bf 8cc5 2bbe e052 9d3b eed0 433e
00000330: 13ec 583e 33ea 033d e290 013e ccb7 68be
00000340: e983 0d3f 5ea0 373c 4adb 3f3e 904f 09bc
00000350: 7ecc c3be 1a41 3dbe aa85 9d3c 8e23 953e
00000360: b33b 0dbf 9db5 37bd 2ca5 22be de56 d13d
00000370: fe28 4d3e a261 e23d 7156 693e 0cf7 11be
00000380: 8a71 25bf 343d 4e3d 04d5 32bd 2c4d 80be
00000390: 6fd7 e43d f73b 583e a2c0 603d f643 813e
000003a0: f960 cabe 6541 f0bc 65f9 823e 960b 973d
000003b0: f165 c73e 6c5a abbd 790f 11be c17e af3e
000003c0: 913e 57be b12f cfbe ed26 85be 2663 61be
000003d0: 9aed e43c c244 fe3d 4ccc a0bd 0705 d5bb
000003e0: 290c 133e 8cb9 c2be 3b12 ff3c bc04 d83e
000003f0: 7f73 f6bd 480f 67be 63bf 76be a02c fbbc

l1.weight_hh_l0 f4 [80, 20]
-0.16689438 -0.11170826 -0.080632955 -0.17987932 -0.0010326058 0.07763168 0.21407893 -0.16929734
0.1975809 0.101956636 0.034442216 0.19132695 -0.1510345 -0.16283166 -0.071101084 -0.21431267
0.07596856 -0.11155531 -0.19655606 -0.14808425 -0.07593113 -0.046150878 -0.20350307 -0.07884799
0.053922683 0.016861439 0.09668565 -0.03374952 0.16937786 -0.15236071 0.028899282 -0.1788162
0.13931677 0.08375707 0.044549793 0.13117856 0.12922618 -0.094999 0.008771986 0.0073125213
0.055226415 -0.12446943 -0.13715078 0.012768194 0.091127545 -0.19130033 -0.102936596 -0.07647739
-0.05393672 -0.0038591772 -0.16369379 -0.03182061 -0.09721014 -0.07829538 0.13237119 -0.0039050728
-0.14787516 0.13256443 -0.110293545 -0.22242409 -0.061838254 0.18484724 -0.13992879 -0.15594386
0.12989086 -0.16216944 -0.20148353 -0.04189436 -0.08537604 0.16150725 -0.05801691 0.08390525
-0.16592515 0.11135912 0.07214388 0.20120674 0.06922269 0.188903 0.1714614 -0.04418567
0.13245314 -0.09041883 0.21690598 -0.074987486 -0.19443622 -0.024894744 0.076392144 0.0069173425
0.14653316 -0.16895892 -0.17008747 -0.017849818 -0.20437963 -0.11894185 -0.20998459 0.1566248
-0.16573745 -0.0017669499 -0.008842245 0.009756893 -0.057621196 -0.18944457 0.06742209 0.15700054
-0.1351057 0.06949979 0.17840594 -0.08598684 0.2039293 -0.1032634 -0.089671046 0.06888816
-0.1497204 -0.17132501 0.16687232 -0.11484453 0.08426651 0.0945546 0.17251557 0.021992624
-0.21805131 -0.08272308 -0.033187285 0.1943306 0.14167869 0.098543406 0.21784633 0.16070199
0.1031836 -0.10721806 -0.11659138 -0.020956099 0.142405 0.042178154 -0.021633968 -0.07657553
0.09506941 -0.2020603 -0.07315329 -0.18286312 0.0075090826 0.18252012 -0.17508918 -0.19102897
-0.084614486 -0.014577553 -0.028467089 -0.07649973 0.21565291 -0.20653214 -0.20162278 -0.16908595
-0.0036016554 0.14506963 0.18069768 -0.02984196 0.025958315 0.007837802 -0.07134448 -0.19163132
0.14703229 -0.052082077 -0.020916909 -0.14206982 -0.20403321 0.15300936 0.083630115 0.07185927
-0.04791823 -0.21402407 0.061958462 -0.025302976 -0.07525225 -0.1635524 -0.072374955 -0.11071743
0.08395764 -0.15374538 -0.1706658 -0.22351736 0.204669 0.1672143 -0.039403677 -0.03022018
0.20337453 0.12526852 -0.11301961 0.20718855 -0.05668746 -0.025295675 -0.15169087 -0.026954606
-0.053578794 -0.11585378 -0.13826093 0.078133196 -0.11331469 0.08341667 0.1322977 -0.07176842
0.008116618 -0.21709162 -0.10623069 -0.18089308 0.08145499 0.01318942 -0.0007440448 0.10009357
-0.11940345 -0.17775244 0.047589988 0.015500441 0.11916989 0.047576964 0.11591664 -0.17200083
0.026903182 0.048075646 0.17233855 0.09277502 -0.03649178 -0.011852622 0.19828245 0.16479206
0.07191411 -0.2224652 0.07640028 0.08546853 -0.14493205 -0.20068218 -0.066940084 0.12734255
-0.08961283 -0.2130669 0.06879008 -0.055079356 -0.016722888 0.08965698 -0.09024693 0.016705886
-0.14067382 -0.12641054 -0.068218485 -0.077200696 0.057371467 0.12173045 0.17641696 0.104306966
0.062336236 0.113060474 0.18663692 0.18449709 -0.13989857 -0.13214952 -0.07098436 -0.18926685
00000000: 5ce6 2abe 4dc7 e4bd e422 a5bd 4932 38be
00000010: 8058 87ba 5cfd 9e3d 8237 5b3e 485c 2dbe
00000020: a652 4a3e a4ce d03d 4813 0d3d 36eb 433e
00000030: caa8 1abe 58bd 26be 729d 91bd c874 5bbe
00000040: 6895 9b3d 1c77 e4bd fe45 49be 66a3 17be
00000050: c881 9bbd b408 3dbd 1c63 50be 0e7b a1bd
00000060: 08de 5c3d 0021 8a3c 2003 c63d f03c 0abd
00000070: 6471 2d3e 7204 1cbe 30be ec3c 981b 37be
00000080: 0ea9 0e3e d488 ab3d d879 363d ac53 063e
00000090: de53 043e d68e c2bd 60b8 0f3c e09d ef3b
000000a0: 1835 623d d4e9 febd 4171 0cbe b031 513c
000000b0: 14a1 ba3d 3ce4 43be 6cd0 d2bd 2ea0 9cbd
000000c0: c0ec 5cbd 40ea 7cbb 589f 27be 5456 02bd
000000d0: 1c16 c7bd 5459 a0bd 508c 073e 40ec 7fbb
000000e0: 966c 17be f8be 073e 95e1 e1bd 24c3 63be
000000f0: 1c4a 7dbd 9848 3d3e 7e49 0fbe bfaf 1fbe
00000100: 1c02 053e bf0f 26be b351 4ebe 6c99 2bbd
00000110: a2d9 aebd 2862 253e 24a3 6dbd 84d6 ab3d
00000120: 48e8 29be 4010 e43d 2cc0 933d 2409 4e3e
00000130: a0c4 8d3d ca6f 413e 9493 2f3e 08fc 34bd
00000140: cca1 073e 822d b9bd 9a1c 5e3e 0a93 99bd
00000150: 4a1a 47be 10f0 cbbc 7c73 9c3d e0aa e23b
00000160: ca0c 163e 9103 2dbe 692b 2ebe c839 92bc
00000170: e548 51be c997 f3bd 3306 57be 4062 203e
00000180: 14b7 29be 0099 e7ba 10df 10bc 60db 1f3c
00000190: 3404 6cbd c2fd 41be 9814 8a3d c0c4 203e
000001a0: 2659 0abe e855 8e3d 0cb0 363e de19 b0bd
000001b0: d8d2 503e c37b d3bd 74a5 b7bd 3c15 8d3d
000001c0: 4e50 19be d36f 2fbe 94e0 2a3e 9c33 ebbd
000001d0: ec93 ac3d d8a5 c13d eca7 303e e029 b43c
000001e0: d848 5fbe b86a a9bd 64ef 07bd 9afe 463e
000001f0: 3814 113e 20d1 c93d 1c13 5f3e 108f 243e
00000200: ec51 d33d 2495 dbbd 76c7 eebd 20ac abbc
00000210: 9ed2 113e 00c3 2c3d b839 b1bc a2d3 9cbd
00000220: c0b3 c23d e5e8 4ebe 64d1 95bd 7840 3bbe
00000230: c00e f63b 8ee6 3a3e 944a 33be 199d 43be
00000240: 5c4a adbd b0d6 6ebc d033 e9bc e4ab 9cbd
00000250: 1ed4 5c3e 297d 53be 3476 4ebe de24 2dbe
00000260: c009 6cbb 228d 143e d008 393e 2077 f4bc
00000270: 88a6 d43c 206a 003c 0e1d 92bd 003b 44be
00000280: a28f 163e 0454 55bd f059 abbc c07a 11be
00000290: 15ee 50be 7cae 1c3e 4446 ab3d f42a 933d
000002a0: e845 44bd 2029 5bbe 28c8 7d3d 3048 cfbc
000002b0: da1d 9abd 487a 27be 5239 94bd d2bf e2bd
000002c0: fcf1 ab3d 6e6f 1dbe 04c3 2ebe bce1 64be
000002d0: c094 513e 3a3a 2b3e c065 21bd 5090 f7bc
000002e0: 6a41 503e 6446 003e d376 e7bd 3c29 543e
000002f0: 1c31 68bd e038 cfbc da54 1bbe e8cf dcbc
00000300: 7075 5bbd bf44 edbd 4694 0dbe 4c04 a03d
00000310: 8811 e8bd 5cd6 aa3d 0c79 073e 52fb 92bd
00000320: 90fb 043c 444d 5ebe 7a8f d9bd 093c 39be
00000330: e0d1 a63d 7018 583c 000c 43ba dcfd cc3d
00000340: cc89 f4bd bc04 36be b8ed 423d 90f5 7d3c
00000350: 580f f43d 10e0 423d b465 ed3d fc20 30be
00000360: 1064 dc3c f8ea 443d 8479 303e d400 be3d
00000370: 6878 15bd 8031 42bc 8e0a 4b3e 40bf 283e
00000380: b447 933d ebcd 63be c077 9c3d 200a af3d
00000390: 1169 14be a17f 4dbe e217 89bd 1666 023e
000003a0: ee86 b7bd 362e 5abe d0e1 8c3d e49a 61bd
000003b0: 70fe 88bc 149e b73d 62d3 b8bd c8da 883c
000003c0: cc0c 10be c471 01be 22b6 8bbd 661b 9ebd
000003d0: 58fe 6a3d d04d f93d a6a6 343e e49e d53d
000003e0: 4854 7f3d 408c e73d c01d 3f3e ceec 3c3e
000003f0: 9241 0fbe 3452 07be 4060 91bd 2bcf 41be

l1.bias_ih_l0 f4 [80]
0.4599396 0.089603245 0.00010388594 0.34513292 0.17189875 0.22796145 0.1259037 0.24650605
-0.18081975 0.26788118 0.30161992 -0.14494076 0.14220989 0.18098286 0.040610977 0.24219903
0.3583639 0.18995959 0.14014877 -0.004909171 0.0011589825 -0.20814167 -0.17634606 -0.20375335
-0.131049 -0.17093658 -0.0727891 -0.11608827 0.14778844 -0.1929476 0.10474029 0.12388429
-0.058137238 -0.14771874 0.03107813 -0.088363364 0.17360201 0.008676738 0.045970708 -0.124421075
0.11798301 -0.024426015 -0.03768603 -0.023793044 0.020193929 -0.14832057 0.14378299 0.11850543
-0.10969932 -0.22929241 -0.03302793 0.1294482 -0.07951617 -0.086488545 0.20125435 0.19294944
-0.25532055 -0.2116801 -0.11905653 -0.14458476 0.42815802 0.24096067 0.2991457 0.3579128
0.17457056 0.15619892 0.16761355 0.30064017 0.27951714 0.23525186 0.3590531 0.21712676
0.24344103 -0.0024671643 0.24319181 -0.1956937 0.6784056 0.24491179 -0.041166738 0.21567069
00000000: 347d eb3e e881 b73d 57dd d938 43b5 b03e
00000010: 3a06 303e ba6e 693e e6ec 003e 156c 7c3e
00000020: d028 39be b927 893e ed6d 9a3e 5a6b 14be
00000030: 789f 113e 9253 393e b257 263d 0603 783e
00000040: 797b b73e c484 423e 2983 0f3e 1cdd a0bb
00000050: 00e9 973a 1723 55be 1094 34be b8a4 50be
00000060: b631 06be 000a 2fbe 7412 95bd b0bf edbd
00000070: da55 173e 0e94 45be 1482 d63d 0cb7 fd3d
00000080: 5021 6ebd 9543 17be 9097 fe3c daf7 b4bd
00000090: bac4 313e e028 0e3c c84b 3c3d 7ad0 febd
000000a0: 14a1 f13d 1119 c8bc ab5c 1abd a1e9 c2bc
000000b0: bd6d a53c 59e1 17be d93b 133e fab2 f23d
000000c0: 09aa e0bd a1cb 6abe 4b48 07bd 128e 043e
000000d0: 60d9 a2bd e820 b1bd 9f15 4e3e 8a94 453e
000000e0: 60b9 82be abc2 58be e9d3 f3bd 070e 14be
000000f0: 8737 db3e 65be 763e a029 993e 5940 b73e
00000100: a0c2 323e 9cf2 1f3e e3a2 2b3e 82ed 993e
00000110: df1c 8f3e dde5 703e cfd5 b73e 7a56 5e3e
00000120: 9b48 793e 26b0 21bb 4607 793e ee63 48be
00000130: fdab 2d3f 28ca 7a3e 749e 28bd c7d8 5c3e

l1.bias_hh_l0 f4 [80]
0.2970184 0.1156971 0.21795665 0.043790966 -0.04902585 -0.01995513 0.4982658 0.23809902
0.23194803 0.39868918 -0.046612598 0.062486406 0.38469264 0.0136626875 0.1210717 -0.15979353
0.6618076 0.26228863 0.07370248 0.09321751 0.0011219233 0.17176223 -0.013230383 0.05210015
-0.149466 -0.12685677 0.17705128 0.17502174 0.119374424 -0.028537437 0.119710386 -0.15999058
0.1825862 0.17684957 0.002548024 0.08737278 0.02286917 0.07377571 0.017971084 -0.16407646
-0.11317549 0.15091197 0.26982957 0.079688884 -0.05158439 -0.049190488 -0.020965025 -0.12847878
-0.17226845 -0.08293316 0.04124316 -0.06943423 0.049414903 -0.095938586 -0.026837973 -0.12586793
0.07447919 -0.2650981 0.10290312 -0.08610083 0.46180716 0.0482169 0.32823747 -0.024211304
-0.076556824 -0.03865813 0.45052403 0.09361283 -0.060852468 0.11372792 0.15214415 0.07621361
-0.023245515 0.28435937 0.036299694 -0.1147375 0.34473923 0.2541333 -0.05684427 0.0009339567
00000000: cc12 983e 9af2 ec3d 0730 5f3e 285e 333d
00000010: 54cf 48bd f178 a3bc b21c ff3e 3bd0 733e
00000020: c983 6d3e fd20 cc3e daec 3ebd bff1 7f3d
00000030: 6ff6 c43e 77d9 5f3c 70f4 f73d eaa0 23be
00000040: 396c 293f b24a 863e 53f1 963d d2e8 be3d
00000050: 800d 933a 70e2 2f3e 40c4 58bc f866 553d
00000060: 9d0d 19be bee6 01be ee4c 353e e638 333e
00000070: 947a f43d 58c7 e9bc b82a f53d 92d4 23be
00000080: e0f7 3a3e 0e18 353e c0fc 263b 80f0 b23d
00000090: 2058 bb3c b817 973d 1838 933c a903 28be
000000a0: 8dc8 e7bd ab88 1a3e 1a27 8a3e ed33 a33d
000000b0: 274a 53bd f77b 49bd d8be abbc f18f 03be
000000c0: 2467 30be dcd8 a9bd 96ee 283d 8933 8ebd
000000d0: 4867 4a3d 737b c4bd 4fdb dbbc 86e3 00be
000000e0: 8c88 983d f0ba 87be dfbe d23d a255 b0bd
000000f0: fd71 ec3e 167f 453d be0e a83e c956 c6bc
00000100: d3c9 9cbd fd57 1ebd 16ab e63e 15b8 bf3d
00000110: 7040 79bd 2fea e83d adcb 1b3e e215 9c3d
00000120: 616d bebc 8d97 913e fdae 143d 7ffb eabd
00000130: a981 b03e c31d 823e 8ad5 68bd c6d4 743a

l1.weight_ih_l1 f4 [80, 20]
0.27819386 -0.0547037 0.25616863 -0.05251038 0.08831959 0.16506046 0.14967917 0.05526991
-0.14171451 -0.1304378 0.16681382 -0.09957692 -0.19690846 0.0259408 0.004132585 -0.015053332
0.06487438 -0.121879734 -0.06237545 -0.040717863 -0.16725707 0.19785954 0.04791304 -0.3835218
0.2152631 -0.065628484 0.1869223 -0.06123713 0.38281676 -0.16838603 0.3052958 -0.059260853
-0.21629533 0.011420607 0.06593632 -0.20589723 0.044191025 -0.10451811 -0.14792188 0.054154754
-0.16188306 -0.027090808 0.049254388 -0.1401729 -0.0033756723 -0.2756908 0.016367627 -0.028683864
-0.12810278 -0.31401896 -0.09748582 0.15874967 -0.06736703 0.109367445 -0.19921112 0.18825442
-0.10171179 -0.033144612 -0.28761023 0.14782315 0.47287977 0.19585145 0.30706647 -0.37619376
0.29323658 0.04159819 -0.20709154 -0.22048898 0.23297486 0.13023771 0.23211546 -0.051519293
-0.097707726 0.08977086 0.09200887 -0.15317626 0.18127765 -0.041576836 0.28444457 -0.17601286
-0.32595402 0.23781106 0.034035984 0.1943743 0.2956914 -0.035345517 0.23118846 -0.16215947
0.23443374 -0.23540953 0.006431223 -0.30133846 -0.2094247 0.1567846 0.34469286 0.07105559
-0.2583404 -0.054991648 0.036114372 0.25724632 -0.49405873 0.06540256 -0.5902232 0.22053759
-0.24977389 -0.2560129 0.3242625 0.21527387 0.041027594 -0.12394413 -0.14626198 0.33576787
0.44739813 -0.42016444 -0.21317187 -0.01905356 -0.43660107 0.038927287 -0.4335194 0.109942384
0.15745142 -0.0866663 0.42756853 -0.30085343 0.1785135 -0.26616618 0.18473023 -0.31209424
0.12399781 0.06993906 0.5024824 -0.031678557 -0.54633296 0.42845204 0.4634219 0.04764049
0.31829068 -0.0042237327 0.07848878 0.010567472 -0.003904403 0.20335847 0.09144852 -0.062297486
0.2549683 -0.3554716 0.25152886 0.1291357 0.15561007 -0.012393872 0.31632796 0.0037126897
-0.053295694 0.14206918 0.16781111 -0.13582851 -0.043050118 0.034675624 0.12562084 0.29783544
-0.34908837 -0.07986705 -0.017906131 0.0022784858 0.00082224247 -0.124814525 0.38955295 0.35533276
0.2155057 -0.19120608 0.117762014 0.041861843 -0.13812873 0.024675835 0.16381615 -0.0995205
-0.5168444 0.25907183 -0.048922177 0.101293504 -0.12857795 0.29534322 0.19581646 -0.04671549
0.2614002 -0.07011965 -0.07494314 0.18521552 -0.11655421 -0.1950624 0.3233702 -0.07762709
-0.2969158 0.028798008 -0.0411663 -0.15077803 -0.29419288 -0.14993173 -0.0061158966 0.3309044
0.0038757503 0.22893675 0.13836087 -0.28646398 0.0578847 -0.056320928 0.16552913 -0.11728573
0.18499653 -0.18709265 0.3242778 -0.028739607 -0.16418616 -0.014760693 0.1045174 -0.2840426
-0.30476382 -0.013577615 0.039191816 -0.023811713 -0.21937533 -0.042949185 -0.37090722 0.13507298
0.009717784 0.026221856 0.43012187 0.44619262 0.106042884 -0.4098828 -0.18800114 0.14033446
0.05942291 -0.16409306 0.031662893 -0.11080262 -0.35591507 -0.19869074 -0.39548898 0.36601824
-0.26142934 0.21401195 -0.2824102 0.23512256 -0.16791157 0.06872749 0.059660833 0.16571291
0.21299152 0.017430302 0.018563941 -0.066322446 0.16917236 0.008680803 0.073016815 0.1677708
00000000: 6d6f 8e3e fd10 60bd 8928 833e 2015 57bd
00000010: e7e0 b43d 9c05 293e 7f45 193e b362 623d
00000020: 9c1d 11be 7d91 05be 3ed1 2a3e fcee cbbd
00000030: 5fa2 49be cd81 d43c a36a 873b 40a2 76bc
00000040: dcdc 843d 159c f9bd 667d 7fbd c6c7 26bd
00000050: 7045 2bbe b19b 4a3e 7740 443d f85c c4be
00000060: ee6d 5c3e 3a68 86bd 8f68 3f3e c9d3 7abd
00000070: 8f00 c43e 636d 2cbe bb4f 9c3e 82bb 72bd
00000080: 867c 5dbe 7f1d 3b3c 9f09 873d b9d6 52be
00000090: a601 353d 970d d6bd d578 17be 60d1 5d3d
000000a0: acc4 25be 8bed ddbc f8be 493d 7c89 0fbe
000000b0: 623a 5dbb 5827 8dbe 6715 863c 6cfa eabc
000000c0: 602d 03be 18c7 a0be a5a6 c7bd 468f 223e
000000d0: baf7 89bd 0afc df3d 00fe 4bbe c4c5 403e
000000e0: 454e d0bd a5c2 07bd a641 93be f45e 173e
000000f0: 4c1d f23e 488d 483e d137 9d3e 789c c0be
00000100: 1b23 963e dd62 2a3d ce0f 54be ddc7 61be
00000110: f690 6e3e 095d 053e adaf 6d3e e505 53bd
00000120: fd1a c8bd c9d9 b73d 256f bc3d 3dda 1cbe
00000130: d9a0 393e 794c 2abd b8a2 913e b73c 34be
00000140: 72e3 a6be be84 733e 5169 0b3d 0e0a 473e
00000150: dd64 973e 76c6 10bd abbc 6c3e 220d 26be
00000160: 660f 703e 320f 71be 02bd d23b 0949 9abe
00000170: 6e73 56be 248c 203e 957b b03e 9885 913d
00000180: 3145 84be ec3e 61bd aaec 133d cab5 833e
00000190: 44f5 fcbe c7f1 853d de18 17bf 9bd4 613e
000001a0: bac4 7fbe 1f14 83be bc05 a63e c170 5c3e
000001b0: 8d0c 283d 6cd6 fdbd b3c5 15be c4e9 ab3e
000001c0: 5e11 e53e cb1f d7be ba49 5abe 3616 9cbc
000001d0: 2d8a dfbe 3872 1f3d 41f6 ddbe 7929 e13d
000001e0: f23a 213e 1a7e b1bd 43ea da3e 7609 9abe
000001f0: 3ecc 363e ef46 88be ec29 3d3e d1ca 9fbe
00000200: 90f2 fd3d 363c 8f3d b0a2 003f 60c1 01bd
00000210: 7adc 0bbf 115e db3e a345 ed3e ad22 433d
00000220: fff6 a23e 3d67 8abb babe a03d 3123 2d3c
00000230: 03e1 7fbb 343d 503e 5d49 bb3d a62b 7fbd
00000240: 348b 823e 6000 b6be 64c8 803e 263c 043e
00000250: 3f58 1f3e ab0f 4bbc bdf5 a13e 9950 733b
00000260: 964c 5abd 957a 113e add6 2b3e a116 0bbe
00000270: 5255 30bd 0708 0e3d c0a2 003e e37d 983e
00000280: b6bb b2be 5691 a3bd e1af 92bc a652 153b
00000290: c28b 573a c29e ffbd 7c73 c73e 2dee b53e
000002a0: 87ad 5c3e 87cb 43be 362d f13d 5377 2b3d
000002b0: 9e71 0dbe fa24 ca3c 6cbf 273e 67d1 cbbd
000002c0: ea4f 04bf 10a5 843e 9f62 48bd f872 cf3d
000002d0: f0a9 03be 3a37 973e 1c84 483e be58 3fbd
000002e0: 3fd6 853e e49a 8fbd ca7b 99bd 23a9 3d3e
000002f0: f9b3 eebd 70be 47be c790 a53e f4fa 9ebd
00000300: 5905 98be cde9 eb3c ff9d 28bd 8e65 1abe
00000310: 73a0 96be b487 19be dc67 c8bb 4d6c a93e
00000320: 4d00 7e3b 656e 6a3e 79ae 0d3e 68ab 92be
00000330: 8218 6d3d c6b0 66bd 7880 293e 8033 f0bd
00000340: bb6f 3d3e 3795 3fbe bd07 a63e 536f ebbc
00000350: 6b20 28be d5d6 71bc 380d d63d 086e 91be
00000360: 010a 9cbe a574 5ebc 9987 203d c810 c3bc
00000370: eda3 60be 7ceb 2fbd 8de7 bdbe 9250 0a3e
00000380: 5737 1f3c 38cf d63c ef38 dc3e 5c73 e43e
00000390: 032d d93d 29dc d1be 5f83 40be d6b3 0f3e
000003a0: 7065 733d 0308 28be f3b0 013d 7cec e2bd
000003b0: 803a b6be 9675 4bbe 887d cabe be66 bb3e
000003c0: 11da 85be f325 5b3e 1298 90be f8c3 703e
000003d0: 03f1 2bbe 00c1 8c3d eb5e 743d a5b0 293e
000003e0: 731a 5a3e fec9 8e3c 6813 983c 10d4 87bd
000003f0: 853b 2d3e ed39 0e3c d789 953d 1ccc 2b3e

l1.weight_hh_l1 f4 [80, 20]
-0.007885858 0.12397951 0.07842365 -0.20827354 0.002263233 0.012086213 -0.21510516 -0.13121015
0.15095475 -0.15549964 -0.21931723 -0.12844378 0.013399094 0.21962976 -0.18167111 -0.13603427
-0.123786636 -0.113353446 -0.0069004744 0.10530764 0.11078444 -0.12908772 -0.13929635 0.04597056
0.04287532 0.10303098 -0.21592243 0.12572974 0.1943017 -0.05823788 0.13019729 0.20857781
-0.17866895 -0.15454975 0.06925523 -0.1353524 -0.04485692 -0.11990261 0.07234123 0.15752381
-0.14443597 0.034759462 0.085950255 0.18023527 -0.09137997 -0.21480408 0.16388986 -0.05306366
0.21814534 -0.07972732 -0.05768919 -0.03522885 -0.11978394 -0.09451185 -0.035562336 -0.06935184
-0.1905636 0.1132493 -0.15489003 0.18787766 -0.044161826 0.13916078 0.21736813 0.033755034
0.11270398 -0.107915536 -0.18732469 0.00096949935 -0.16183048 0.10036868 0.00021588802 0.15962595
-0.0449657 -0.13218158 -0.11091781 -0.12560649 0.17933467 0.14312416 0.21998769 -0.17960255
0.05340919 -0.13723183 -0.15398477 0.21567741 -0.20313837 0.007268876 0.10119742 -0.060089648
-0.01075004 0.22140497 -0.15093625 0.008457556 0.21162894 -0.06839588 0.18419096 0.1666758
-0.072629645 -0.22239009 0.062699705 0.1571616 -0.15751192 0.033011347 0.10464916 -0.15096357
-0.069575995 0.118920594 -0.035821408 0.19344184 0.14413047 0.12913182 -0.07295869 -0.15648161
0.06622258 0.065164 -0.089831755 0.09063473 0.1472764 -0.0653481 -0.027457848 0.0840278
0.1591909 0.17357665 0.062805206 0.016578674 0.023496866 -0.08182664 0.18317077 -0.0055749416
-0.13251677 -0.19835943 -0.09524888 0.04260695 -0.19293599 0.035379797 0.20336503 -0.086385116
0.0021230727 -0.10416861 -0.07385628 -0.18204811 0.0631125 -0.022994116 -0.045006275 -0.05874613
0.20552102 0.0729565 -0.050849393 -0.13456301 0.07668644 0.00044310093 0.1424753 -0.1856891
0.17294899 -0.11826298 0.024392486 0.10850841 0.041407824 0.101673454 -0.18392952 -0.045508176
-0.10872839 -0.114099815 -0.008843318 0.115541816 -0.059616536 -0.20952232 -0.1598427 0.07053718
-0.10296594 0.0683707 0.14344549 -0.005707741 -0.20804496 -0.13976318 -0.07115927 -0.14799269
0.16445601 0.08970398 0.057349592 -0.21162961 0.082529575 0.017168194 -0.15712869 0.04169166
-0.16027713 -0.02219981 0.15977809 -0.063693464 0.18627405 -0.10958615 0.012332082 0.06189528
0.19023025 0.1532754 0.15337822 -0.04450801 -0.20904323 -0.03689973 -0.08554518 -0.15822941
-0.06191732 -0.11027281 -0.042690054 0.043789208 -0.17456004 -0.052758455 0.18018475 0.005862564
-0.047603518 0.04554698 -0.055652678 -0.2173801 -0.07461721 -0.17254722 -0.0664417 -0.006813228
0.09329224 0.14081088 -0.1438413 0.02061461 -0.22109625 0.14540881 -0.089760005 0.016201526
0.07380876 0.19887635 0.15529218 0.08615577 0.16842261 0.079429984 0.0872103 -0.08033867
-0.002633527 0.19820675 -0.026428312 0.009601727 0.07978684 0.1548889 0.13440913 0.03849578
0.17462224 -0.02258721 -0.22279613 0.11954832 0.18246502 0.0044392943 0.17236295 0.0051890463
0.2182771 -0.114171654 -0.09787123 -0.114531584 0.056319058 -0.20787248 -0.092420295 -0.16863301
00000000: b033 01bc f8e8 fd3d 949c a03d a945 55be
00000010: c052 143b 4005 463c 8744 5cbe f45b 06be
00000020: e293 1a3e 4c3b 1fbe b294 60be c486 03be
00000030: e087 5b3c a0e6 603e fe07 3abe 914c 0bbe
00000040: d983 fdbd da25 e8bd 601d e2bb 88ab d73d
00000050: f4e2 e23d 922f 04be b4a3 0ebe a04b 3c3d
00000060: 089e 2f3d e801 d33d c51a 5dbe 4cbf 003e
00000070: 06f7 463e d88a 6ebd 7052 053e 6c95 553e
00000080: fef4 36be 4a42 1ebe b0d5 8d3d d299 0abe
00000090: e4bb 37bd 808f f5bd a427 943d ec4d 213e
000000a0: 06e7 13be f05f 0e3d b006 b03d 988f 383e
000000b0: 6c25 bbbd 9af5 5bbe bed2 273e 4859 59bd
000000c0: 7e61 5f3e 1448 a3bd 804b 6cbd 204c 10bd
000000d0: 4851 f5bd 6e8f c1bd d0a9 11bd 5608 8ebd
000000e0: 1b23 43be 40ef e73d 7e9b 1ebe 0063 403e
000000f0: 08e3 34bd 2a80 0e3e c095 5e3e b842 0a3d
00000100: 58d1 e63d d202 ddbd 0bd2 3fbe 0026 7e3a
00000110: e4b6 25be 188e cd3d 0060 6239 fc74 233e
00000120: f42d 38bd 9c5a 07be e028 e3bd fd9e 00be
00000130: 82a3 373e 248f 123e 7444 613e bbe9 37be
00000140: 98c3 5a3d 8086 0cbe 2fae 1dbe 8ada 5c3e
00000150: 8103 50be c02f ee3b 9840 cf3d 9020 76bd
00000160: f020 30bc fcb7 623e 088f 1abe 9091 0a3c
00000170: 42b5 583e 2413 8cbd 8e9c 3c3e 10ad 2a3e
00000180: dabe 94bd 3aba 63be b468 803d f8ee 203e
00000190: ce4a 21be e836 073d 4c52 d63d 3296 1abe
000001a0: dc7d 8ebd a48c f33d 78b9 12bd 9e15 463e
000001b0: f096 133e 223b 043e 5e6b 95bd b73c 20be
000001c0: b49f 873d b474 853d b6f9 b7bd b49e b93d
000001d0: a0cf 163e 3ad5 85bd 48ef e0bc c416 ac3d
000001e0: f002 233e 14be 313e 04a0 803d 00d0 873c
000001f0: 807c c03c ba94 a7bd 1e91 3b3e 00ae b6bb
00000200: 7ab2 07be bc1e 4bbe d811 c3bd a084 2e3d
00000210: 0391 45be 68ea 103d ec3e 503e aeea b0bd
00000220: 4023 0b3b 5a56 d5bd f641 97bd d26a 3abe
00000230: 2041 813d 285e bcbc 8058 38bd c89f 70bd
00000240: 1a74 523e 386a 953d 7447 50bd e3ca 09be
00000250: c80d 9d3d 0050 e839 0ce5 113e 4925 3ebe
00000260: 8a19 313e dc33 f2bd c0d2 c73c a839 de3d
00000270: 409b 293d 2c3a d03d 0558 3cbe c866 3abd
00000280: fdac debd 2aad e9bd 90e3 10bc 30a1 ec3d
00000290: 7830 74bd 058d 56be cead 23be cc75 903d
000002a0: cfdf d2bd f005 8c3d 60e3 123e 0008 bbbb
000002b0: bd09 55be 141e 0fbe f4bb 91bd 658b 17be
000002c0: 2867 283e b8b6 b73d 68e7 6a3d 6fb5 58be
000002d0: 4405 a93d 50a4 8c3c 58e6 20be e0c4 2a3d
000002e0: b01f 24be 60dc b5bc de9c 233e b871 82bd
000002f0: a0be 3e3e b46e e0bd 800c 4a3c e885 7d3d
00000300: b8cb 423e 3af4 1c3e 2e0f 1d3e 084e 36bd
00000310: 6e0f 56be 2c24 17bd 5032 afbd e406 22be
00000320: 049d 7dbd b6d6 e1bd c4db 2ebd 505c 333d
00000330: debf 32be 4019 58bd 5a82 383e c01a c03b
00000340: e8fb 42bd 788f 3a3d 10f4 63bd e498 5ebe
00000350: e8d0 98bd 38b0 30be 9612 88bd 8041 dfbb
00000360: 0010 bf3d ba30 103e 224b 13be f8df a83c
00000370: 0e67 62be 0ce6 143e 18d4 b7bd 10b9 843c
00000380: 0c29 973d 3ea6 4b3e ea04 1f3e 7072 b03d
00000390: fa76 2c3e 30ac a23d 509b b23d 9a88 a4bd
000003a0: 4097 2cbb b6f6 4a3e 3080 d8bc 9050 1d3c
000003b0: 4867 a33d 329b 1e3e 8ca2 093e c0ad 1d3d
000003c0: 2cd0 323e d008 b9bc ab24 64be c0d5 f43d
000003d0: 1cd8 3a3e 8077 913b ea7f 303e e008 aa3b
000003e0: 0884 5f3e d4d2 e9bd b670 c8bd 898f eabd
000003f0: d0ae 663d 86dc 54be da46 bdbd 22ae 2cbe

l1.bias_ih_l1 f4 [80]
0.33658773 -0.062007215 -0.23982865 0.3274057 0.16826408 0.43104464 0.20902388 -0.055338815
-0.14784062 0.1850603 0.03779935 -0.07480411 0.04639482 -0.0035982507 0.11771558 0.016622238
0.29842427 0.18333182 0.002861221 0.28665283 0.1247479 -0.17226048 -0.0838007 -0.2208894
0.18597242 -0.047001287 0.035146862 -0.157786 0.19560781 -0.02452369 -0.1871581 0.03121823
0.053577185 -0.05987473 -0.19197805 0.15254125 0.21073312 -0.105659164 0.059847116 0.12476909
0.19388184 0.04810726 -0.052333444 0.014695208 -0.07652495 -0.016010279 0.037999496 0.112878546
0.20326778 0.17088778 0.16867806 -0.025203722 -0.053548805 -0.22790043 0.12122703 -0.13234062
0.100661516 0.11608997 0.15460151 0.11257591 -0.040549815 0.26652795 0.17744021 0.028965255
0.14597784 0.05068252 0.08638834 -0.09318215 -0.1470088 0.17939919 -0.062304392 -0.05604973
-0.16069384 0.19304289 0.2200924 -0.009844038 0.17886353 0.13776389 -0.09672927 0.24024099
00000000: 3a55 ac3e 47fb 7dbd a495 75be b8a1 a73e
00000010: 6b4d 2c3e e2b1 dc3e 5b0a 563e f4aa 62bd
00000020: 8863 17be 7380 3d3e 7ed3 1a3d e632 99bd
00000030: 7f08 3e3d a1d0 6bbb de14 f13d 5c2b 883c
00000040: 11cb 983e 56bb 3b3e 5383 3b3b 29c4 923e
00000050: d47b ff3d 0d65 30be b49f abbd d530 62be
00000060: 8e6f 3e3e 6c84 40bd 28f6 0f3d a792 21be
00000070: 6a4d 483e e8e5 c8bc 5fa6 3fbe 60bd ff3c
00000080: c073 5b3d 343f 75bd e595 44be c633 1c3e
00000090: 6cca 573e d563 d8bd 4022 753d f086 ff3d
000000a0: f688 463e 1e0c 453d 985b 56bd 2bc4 703c
000000b0: 1db9 9cbd fd27 83bc 5ca5 1b3d de2c e73d
000000c0: 6e25 503e 35fd 2e3e f1b9 2c3e 0978 cebc
000000d0: fe55 5bbd bb5e 69be e145 f83d 4d84 07be
000000e0: a027 ce3d 94c0 ed3d dc4f 1e3e 338e e63d
000000f0: 9017 26bd 5a76 883e e3b2 353e 8b48 ed3c
00000100: 377b 153e 7998 4f3d 5fec b03d 48d6 bebd
00000110: 7a89 16be 6cb4 373e e432 7fbd 6794 65bd
00000120: ed8c 24be 09ad 453e e75f 613e e348 21bc
00000130: 0028 373e fa11 0d3e ff19 c6bd bc01 763e

l1.bias_hh_l1 f4 [80]
0.17535245 0.026392646 0.13475838 0.075106 -0.08510667 0.20073937 0.31833568 0.15430862
0.19070753 -0.010450416 -0.09371593 0.30431053 0.19201425 0.1455745 0.17650998 -0.15875702
-0.009476931 0.07349383 -0.13039015 0.24295987 -0.14390007 0.16641995 -0.048413575 -0.014383823
-0.059006512 -0.166411 0.03166887 -0.19649735 0.108345866 0.21043286 0.20767805 -0.21411236
0.2065221 0.17575863 0.07559365 0.14561728 0.090637475 0.023520648 -0.05861357 -0.14955565
0.26297873 -0.18986075 0.051613238 0.21618624 -0.21386833 0.016223652 0.093540184 0.08138523
-0.058065314 0.13357027 -0.02234177 -0.015054067 0.074920475 0.040508404 0.13054249 0.0685061
0.038652796 0.11669678 0.14948092 -0.08534805 0.03583351 0.26484418 -0.14892969 0.06720406
0.10072656 0.12562083 0.3547198 0.26794472 -0.06660454 0.049723487 0.12630107 0.18747613
0.051267993 -0.10251802 -0.20330513 0.052983172 -0.056802064 0.21043327 0.22989291 0.21370937
00000000: 988f 333e 6435 d83c 1afe 093e 2dd1 993d
00000010: 684c aebd 9f8e 4d3e e5fc a23e 1403 1e3e
00000020: d648 433e 3938 2bbc 23ee bfbd 97ce 9b3e
00000030: 629f 443e 7b11 153e 08bf 343e 3391 22be
00000040: 2145 1bbc ef83 963d ff84 05be 79ca 783e
00000050: 8a5a 13be fe69 2a3e 504d 46bd 20aa 6bbc
00000060: d0b0 71bd a567 2abe 38b7 013d 9a36 49be
00000070: 70e4 dd3d b67b 573e 8ea9 543e 4540 5bbe
00000080: 887a 533e 12fa 333e d8d0 9a3d b21c 153e
00000090: 24a0 b93d 60ae c03c c814 70bd 1e25 19be
000000a0: 26a5 863e db6a 42be 6768 533d ed5f 5d3e
000000b0: 4d00 5bbe 77e7 843c ff91 bf3d 4dad a63d
000000c0: e5d5 6dbd a5c6 083e 1606 b7bc 55a5 76bc
000000d0: e86f 993d 24ec 253d eeac 053e ed4c 8c3d
000000e0: 6552 1e3d b9fe ee3d 8711 193e f5ca aebd
000000f0: 29c6 123d a899 873e 0681 18be 48a2 893d
00000100: ba49 ce3d bfa2 003e d59d b53e 0d30 893e
00000110: f667 88bd dbaa 4b3d 1155 013e bef9 3f3e
00000120: 63fe 513d f8f4 d1bd 382f 50be e204 593d
00000130: 48a9 68bd d27b 573e 0c69 6b3e a1d6 5a3e

l2.weight f4 [3, 20]
-0.23499697 -0.13878594 -0.17789324 0.11890292 0.04675103 0.5094752 0.12015778 0.29367507
-0.13128723 -0.15038149 0.1673959 0.21681637 0.0016998125 0.10238749 0.16374719 0.18657932
-0.03652315 -0.23687077 0.38490182 0.45828876 0.45791036 0.21534686 -0.10371892 0.5060049
-0.16037321 -0.17316683 -0.48933414 -0.1545006 0.28734243 0.20122708 0.10284778 -0.24975257
-0.11107536 -0.03746396 0.22567654 -0.15298481 0.53582984 0.25106603 0.22364008 0.11827453
0.117701285 -0.2268844 0.15452437 -0.053436566 -0.119323656 -0.13470821 0.35244232 0.25451452
0.22533774 0.2739867 0.12555093 -0.3001206 -0.15633442 -0.0890278 -0.115861244 -0.1894429
-0.33236232 0.09943473 -0.0020275693 -0.1870173
00000000: 0ca3 70be e71d 0ebe a529 36be 6083 f33d
00000010: 027e 3f3d f76c 023f 4815 f63d 945c 963e
00000020: 2970 06be 9bfd 19be d569 2b3e 1c05 5e3e
00000030: 3ecc de3a 88b0 d13d 58ad 273e a60e 3f3e
00000040: 4c99 15bd 408e 72be da11 c53e d3a4 ea3e
00000050: 3a73 ea3e e383 5c3e 966a d4bd 8a89 013f
00000060: e038 24be a552 31be 018a fabe 6835 1ebe
00000070: 8c1e 933e 790e 4e3e dba1 d23d 23bf 7fbe
00000080: 7a7b e3bd cf73 19bd c017 673e 0da8 1cbe
00000090: 252c 093f ba8b 803e e801 653e eb39 f23d
000000a0: 5f0d f13d 6254 68be a33b 1e3e 4de0 5abd
000000b0: f65f f4bd f3f0 09be 5273 b43e ba4f 823e
000000c0: f0be 663e fc47 8c3e 6c90 003e 68a9 99be
000000d0: 2116 20be 3554 b6bd a948 edbd 52fd 41be
000000e0: 652b aabe 70a4 cb3d f8e0 04bb 7781 3fbe

l2.bias f4 [3]
0.2511481 0.18974103 0.17504089
00000000: 7c96 803e 794b 423e eb3d 333e
