SceneR2/saved_models/CanModel_4Jun.pt (torch_old, 23376 bytes, 10 tensors)

l1.weight_ih_l0 f4 [80, 4]
00000000: 3eb8 50bd 7894 d3be 02e7 05bf 6ae2 96be
00000010: 20e7 b2be 9d30 2cbe 0699 c537 ed50 0bbf
00000020: 72dd bb3e 5e5d c6be 8066 a7be 2776 413f
00000030: c173 7fbe e237 0e3d ad7d 5ebe 77b2 c83c
00000040: e140 fa3d 8410 61be 6226 01be e4f6 093f
00000050: e4a5 39bf ab5e 09be 21f8 99bd d6e3 883e
00000060: 50fa 8cbe 3934 a0be 1185 d3be 9bce b0be
00000070: c926 95be c908 ccbe 8a35 00bf fe17 94be
00000080: df40 b83d bf0a 123e 9199 29be 6b96 8cbc
00000090: 6154 5b3e 1636 febe 9c34 2ebe e899 3c3e
000000a0: 2cc8 ee3e c4ec 2abe 4972 bbbc 5fb7 403e
000000b0: e901 863b ca01 3dbe d4dd 6abe a908 42be
000000c0: 4be3 0c3c a6e7 9d3c 86c6 d3bd c623 ec3e
000000d0: ffa5 c03e ab57 cbbe f8c5 e8be 4263 b03d
000000e0: d355 3bbd 7932 31be d9b7 b3be 8f28 d13e
000000f0: 8e33 f13d 33bd 173d 3e87 733e 7544 3b3e
00000100: 68a6 cbbe 3be1 b3bd 3aae ae3a 4d98 0f3d
00000110: 4e7b dbbd 67b4 403e 36d1 2c3e 0e11 32bd
00000120: 65ea 1fbe 6904 20bd 3905 25be 96d3 013e
00000130: ac7f febe 99ec 9bbd f22f 76bd a952 44be
00000140: 3a6a 323e dbc6 59be c4ba 41be b027 e63c
00000150: 702e 9b3c bb97 11be e48d 5b3e fe03 d4bd
00000160: fc14 b13d d2b3 503e 101c 29be 7817 c23d
00000170: 68ee a8bc a8ac 2ebd 0830 1bbd 0ba8 2abe
00000180: 56d5 5c3e 1001 9a3c f675 553e f4ba a3bd
00000190: 3061 bf3d e69d 9dbd be11 0a3e 326c 1bbe
000001a0: c086 2c3d b4de 183e 685a 6d3d 5e53 10be
000001b0: 99ad eabd 5253 033e faf1 643e 8623 35be
000001c0: 5af7 0d3e 10f6 3d3e 7a37 d2bd bc1e 03be
000001d0: b2b6 0d3e f4f6 003e 8066 14be c057 0e3b
000001e0: 0142 fbbd 9c86 71bd 9085 8f3d b0d6 3a3e
000001f0: 1f0e 27be 38bb 8c3d b813 83bc 1cdb e33d
00000200: 7bd9 44be 401d 433b 6c30 08be 1a63 d0bd
00000210: 6c97 aebd d402 fb3d 7087 7abc 505f 013c
00000220: f82a ec3d 26cf 593e c859 b63d afb8 37be
00000230: b00a 363e 4a01 b2bd 1034 12bc b5ff 36be
00000240: a15d f1bd e802 7e3d d7cb 61be 7463 d13d
00000250: 7dc3 f4bd 641a 843d 3c5f c1bd e4a2 f93d
00000260: a050 50bd c8b5 ca3d 51cd 32be 3072 cb3d
00000270: efa1 19be ccb7 c3bd b29e babd 4c16 20bd
00000280: 07ee 88bf 6e73 cabd 3196 203e 8ba1 833d
00000290: 35c8 9c3e 3bac 29be 3a2b b2be acdf de3e
000002a0: cf3f 1abf abd0 f43d bc54 4ebd 8bf3 53be
000002b0: 929a 103f 1227 4dbd a57c e03d 8c48 1c3e
000002c0: dd79 e3be 1ed3 3dbe 684b a73d 35ab 1e3b
000002d0: 3cf2 dbbe efb0 98bd c551 55bd f32a 82be
000002e0: e809 703f 586a 43bd 69d0 303d a6fe f53c
000002f0: 7577 6f3f b5b5 303e 8f02 3abe c96e b2bd
00000300: 77b8 90be 9e93 acbe bf52 a6be a197 913e
00000310: de59 33bf e94a b5bd 6d9e afbd feee 92bd
00000320: 731d 5ebf 6b5b 06be 9850 293d 1704 153e
00000330: d15a d03e 11c3 923c b60d e63d 1833 64be
00000340: e53c 503f 0b99 6abd 5fde f23d 4cea 5fbd
00000350: 6541 3bbf 72df 1cbe 75a0 533d 85cc b13e
00000360: 20ef 59bf 6c51 433d 0daf 87bd ef6d 733d
00000370: 67d1 9e3e 7cdd 0c3e bb26 823e f641 57be
00000380: 12c6 41bf bc5f dc3c b981 86bd 575f 49be
00000390: 9357 fb3d 1a39 c23e befd 663e 8228 043f
000003a0: 0957 37bf 67a2 cebd c342 3f3e 1820 f93d
000003b0: b447 0d3f d7cd 9b3b 1d4d 5ebd 3554 a73e
000003c0: a380 8bbe c568 ffbe 39b7 b7be b5c8 a4be
000003d0: 13bd 5fbd 5ba4 8a3e 24e7 863d 3dde 0bbf
000003e0: dd45 603d 93d3 15bf 78bc 27be deb5 743f
000003f0: 2b02 58be 38a6 57be 570d 63be 483f 2cbc
-0.050956957 -0.4132421 -0.52305615 -0.29469615 -0.3494196 -0.1681542 2.3555487e-05 -0.5442036
0.36692387 -0.3874311 -0.3269539 0.7557091 -0.249465 0.034721263 -0.21727629 0.024499161
0.12219406 -0.21978956 -0.12612298 0.5389235 -0.72518754 -0.13415019 -0.0751803 0.26736325
-0.27534723 -0.31289843 -0.4131246 -0.34532627 -0.29131153 -0.39850453 -0.50081694 -0.28924555
0.08996748 0.14261912 -0.16562487 -0.017161569 0.21418907 -0.4965064 -0.17012256 0.18418086
0.46637094 -0.16691881 -0.022881644 0.1881995 0.004089583 -0.18457714 -0.22936183 -0.18948616
0.008599113 0.019275498 -0.103406 0.46121043 0.37626645 -0.39715323 -0.45463538 0.08612682
-0.045736145 -0.1730441 -0.35101202 0.40851256 0.117774114 0.03704567 0.2378206 0.18287833
-0.39775395 -0.08783194 0.001332707 0.035057355 -0.10716878 0.18818818 0.16876683 -0.043473296
-0.15616758 -0.039066706 -0.16115274 0.1267837 -0.4970678 -0.07613487 -0.060104318 -0.19172157
0.17423335 -0.21267264 -0.18918902 0.028095096 0.018943042 -0.14218037 0.21440846 -0.10352324
0.086465806 0.20381096 -0.16514611 0.094771326 -0.020621493 -0.042645127 -0.037887603 -0.16665666
0.21565756 0.018799335 0.2084578 -0.07994643 0.09344709 -0.07696132 0.1348333 -0.15177992
0.042120695 0.14928705 0.057947546 -0.14094302 -0.114588924 0.12824753 0.22357932 -0.17689332
0.13863888 0.18550897 -0.102644876 -0.12804693 0.13839224 0.12594205 -0.14492226 0.0021719784
-0.122684486 -0.058966264 0.07007897 0.1824596 -0.1631398 0.06871647 -0.016000614 0.11125776
-0.19223587 0.0029772073 -0.13299721 -0.10175152 -0.08524975 0.12256399 -0.01529108 0.007896259
0.11531633 0.21270427 0.08903843 -0.17941545 0.17777514 -0.08691652 -0.0089235455 -0.17870982
-0.117854364 0.06201449 -0.22050415 0.10224047 -0.11951349 0.06450346 -0.09441993 0.12189272
-0.05085814 0.09897953 -0.17461134 0.09933889 -0.15003179 -0.09556541 -0.091123 -0.039083764
-1.069764 -0.09885298 0.15682293 0.06427296 0.30621496 -0.16569607 -0.34798604 0.43530023
-0.60253614 0.11953863 -0.050373778 -0.20698373 0.56485856 -0.05008609 0.10961274 0.1526205
-0.44428912 -0.18537566 0.081686795 0.0024210934 -0.42958248 -0.074556224 -0.052079935 -0.25423393
0.93765116 -0.04770884 0.043167505 0.030028652 0.9354165 0.17256816 -0.18165039 -0.08712537
-0.28265736 -0.33706373 -0.32485005 0.28435996 -0.70059 -0.088521786 -0.08575139 -0.071744904
-0.86763686 -0.1312081 0.041336626 0.14552341 0.40694287 0.01791528 0.11233084 -0.22285116
0.8134292 -0.05727486 0.1185882 -0.054666802 -0.7314666 -0.15319613 0.051666696 0.3472635
-0.851305 0.04768507 -0.06625185 0.059431013 0.31019136 0.13756365 0.25420174 -0.21021256
-0.75692856 0.026901118 -0.065677114 -0.19665276 0.12272563 0.3793419 0.22557732 0.5162431
-0.7161718 -0.100895695 0.18677811 0.121643245 0.55187535 0.0047547626 -0.05427276 0.32681432
-0.2724658 -0.4988462 -0.35881975 -0.32184377 -0.054623675 0.27078518 0.06587055 -0.54635984
0.054754127 -0.5852596 -0.16380489 0.9559001 -0.21094577 -0.21059501 -0.22173057 -0.010513134

l1.weight_hh_l0 f4 [80, 20]
00000000: 5ce6 2abe 4dc7 e4bd e422 a5bd 4932 38be
00000010: 8058 87ba 5cfd 9e3d 8237 5b3e 485c 2dbe
00000020: a652 4a3e a4ce d03d 4813 0d3d 36eb 433e
00000030: caa8 1abe 58bd 26be 729d 91bd c874 5bbe
00000040: 6895 9b3d 1c77 e4bd fe45 49be 66a3 17be
00000050: c881 9bbd b408 3dbd 1c63 50be 0e7b a1bd
00000060: 08de 5c3d 0021 8a3c 2003 c63d f03c 0abd
00000070: 6471 2d3e 7204 1cbe 30be ec3c 981b 37be
00000080: 0ea9 0e3e d488 ab3d d879 363d ac53 063e
00000090: de53 043e d68e c2bd 60b8 0f3c e09d ef3b
000000a0: 1835 623d d4e9 febd 4171 0cbe b031 513c
000000b0: 14a1 ba3d 3ce4 43be 6cd0 d2bd 2ea0 9cbd
000000c0: c0ec 5cbd 40ea 7cbb 589f 27be 5456 02bd
000000d0: 1c16 c7bd 5459 a0bd 508c 073e 40ec 7fbb
000000e0: 966c 17be f8be 073e 95e1 e1bd 24c3 63be
000000f0: 1c4a 7dbd 9848 3d3e 7e49 0fbe bfaf 1fbe
00000100: 1c02 053e bf0f 26be b351 4ebe 6c99 2bbd
00000110: a2d9 aebd 2862 253e 24a3 6dbd 84d6 ab3d
00000120: 48e8 29be 4010 e43d 2cc0 933d 2409 4e3e
00000130: a0c4 8d3d ca6f 413e 9493 2f3e 08fc 34bd
00000140: cca1 073e 822d b9bd 9a1c 5e3e 0a93 99bd
00000150: 4a1a 47be 10f0 cbbc 7c73 9c3d e0aa e23b
00000160: ca0c 163e 9103 2dbe 692b 2ebe c839 92bc
00000170: e548 51be c997 f3bd 3306 57be 4062 203e
00000180: 14b7 29be 0099 e7ba 10df 10bc 60db 1f3c
00000190: 3404 6cbd c2fd 41be 9814 8a3d c0c4 203e
000001a0: 2659 0abe e855 8e3d 0cb0 363e de19 b0bd
000001b0: d8d2 503e c37b d3bd 74a5 b7bd 3c15 8d3d
000001c0: 4e50 19be d36f 2fbe 94e0 2a3e 9c33 ebbd
000001d0: ec93 ac3d d8a5 c13d eca7 303e e029 b43c
000001e0: d848 5fbe b86a a9bd 64ef 07bd 9afe 463e
000001f0: 3814 113e 20d1 c93d 1c13 5f3e 108f 243e
00000200: ec51 d33d 2495 dbbd 76c7 eebd 20ac abbc
00000210: 9ed2 113e 00c3 2c3d b839 b1bc a2d3 9cbd
00000220: c0b3 c23d e5e8 4ebe 64d1 95bd 7840 3bbe
00000230: c00e f63b 8ee6 3a3e 944a 33be 199d 43be
00000240: 5c4a adbd b0d6 6ebc d033 e9bc e4ab 9cbd
00000250: 1ed4 5c3e 297d 53be 3476 4ebe de24 2dbe
00000260: c009 6cbb 228d 143e d008 393e 2077 f4bc
00000270: 88a6 d43c 206a 003c 0e1d 92bd 003b 44be
00000280: a28f 163e 0454 55bd f059 abbc c07a 11be
00000290: 15ee 50be 7cae 1c3e 4446 ab3d f42a 933d
000002a0: e845 44bd 2029 5bbe 28c8 7d3d 3048 cfbc
000002b0: da1d 9abd 487a 27be 5239 94bd d2bf e2bd
000002c0: fcf1 ab3d 6e6f 1dbe 04c3 2ebe bce1 64be
000002d0: c094 513e 3a3a 2b3e c065 21bd 5090 f7bc
000002e0: 6a41 503e 6446 003e d376 e7bd 3c29 543e
000002f0: 1c31 68bd e038 cfbc da54 1bbe e8cf dcbc
00000300: 7075 5bbd bf44 edbd 4694 0dbe 4c04 a03d
00000310: 8811 e8bd 5cd6 aa3d 0c79 073e 52fb 92bd
00000320: 90fb 043c 444d 5ebe 7a8f d9bd 093c 39be
00000330: e0d1 a63d 7018 583c 000c 43ba dcfd cc3d
00000340: cc89 f4bd bc04 36be b8ed 423d 90f5 7d3c
00000350: 580f f43d 10e0 423d b465 ed3d fc20 30be
00000360: 1064 dc3c f8ea 443d 8479 303e d400 be3d
00000370: 6878 15bd 8031 42bc 8e0a 4b3e 40bf 283e
00000380: b447 933d ebcd 63be c077 9c3d 200a af3d
00000390: 1169 14be a17f 4dbe e217 89bd 1666 023e
000003a0: ee86 b7bd 362e 5abe d0e1 8c3d e49a 61bd
000003b0: 70fe 88bc 149e b73d 62d3 b8bd c8da 883c
000003c0: cc0c 10be c471 01be 22b6 8bbd 661b 9ebd
000003d0: 58fe 6a3d d04d f93d a6a6 343e e49e d53d
000003e0: 4854 7f3d 408c e73d c01d 3f3e ceec 3c3e
000003f0: 9241 0fbe 3452 07be 4060 91bd 2bcf 41be
-0.16689438 -0.11170826 -0.080632955 -0.17987932 -0.0010326058 0.07763168 0.21407893 -0.16929734
0.1975809 0.101956636 0.034442216 0.19132695 -0.1510345 -0.16283166 -0.071101084 -0.21431267
0.07596856 -0.11155531 -0.19655606 -0.14808425 -0.07593113 -0.046150878 -0.20350307 -0.07884799
0.053922683 0.016861439 0.09668565 -0.03374952 0.16937786 -0.15236071 0.028899282 -0.1788162
0.13931677 0.08375707 0.044549793 0.13117856 0.12922618 -0.094999 0.008771986 0.0073125213
0.055226415 -0.12446943 -0.13715078 0.012768194 0.091127545 -0.19130033 -0.102936596 -0.07647739
-0.05393672 -0.0038591772 -0.16369379 -0.03182061 -0.09721014 -0.07829538 0.13237119 -0.0039050728
-0.14787516 0.13256443 -0.110293545 -0.22242409 -0.061838254 0.18484724 -0.13992879 -0.15594386
0.12989086 -0.16216944 -0.20148353 -0.04189436 -0.08537604 0.16150725 -0.05801691 0.08390525
-0.16592515 0.11135912 0.07214388 0.20120674 0.06922269 0.188903 0.1714614 -0.04418567
0.13245314 -0.09041883 0.21690598 -0.074987486 -0.19443622 -0.024894744 0.076392144 0.0069173425
0.14653316 -0.16895892 -0.17008747 -0.017849818 -0.20437963 -0.11894185 -0.20998459 0.1566248
-0.16573745 -0.0017669499 -0.008842245 0.009756893 -0.057621196 -0.18944457 0.06742209 0.15700054
-0.1351057 0.06949979 0.17840594 -0.08598684 0.2039293 -0.1032634 -0.089671046 0.06888816
-0.1497204 -0.17132501 0.16687232 -0.11484453 0.08426651 0.0945546 0.17251557 0.021992624
-0.21805131 -0.08272308 -0.033187285 0.1943306 0.14167869 0.098543406 0.21784633 0.16070199
0.1031836 -0.10721806 -0.11659138 -0.020956099 0.142405 0.042178154 -0.021633968 -0.07657553
0.09506941 -0.2020603 -0.07315329 -0.18286312 0.0075090826 0.18252012 -0.17508918 -0.19102897
-0.084614486 -0.014577553 -0.028467089 -0.07649973 0.21565291 -0.20653214 -0.20162278 -0.16908595
-0.0036016554 0.14506963 0.18069768 -0.02984196 0.025958315 0.007837802 -0.07134448 -0.19163132
0.14703229 -0.052082077 -0.020916909 -0.14206982 -0.20403321 0.15300936 0.083630115 0.07185927
-0.04791823 -0.21402407 0.061958462 -0.025302976 -0.07525225 -0.1635524 -0.072374955 -0.11071743
0.08395764 -0.15374538 -0.1706658 -0.22351736 0.204669 0.1672143 -0.039403677 -0.03022018
0.20337453 0.12526852 -0.11301961 0.20718855 -0.05668746 -0.025295675 -0.15169087 -0.026954606
-0.053578794 -0.11585378 -0.13826093 0.078133196 -0.11331469 0.08341667 0.1322977 -0.07176842
0.008116618 -0.21709162 -0.10623069 -0.18089308 0.08145499 0.01318942 -0.0007440448 0.10009357
-0.11940345 -0.17775244 0.047589988 0.015500441 0.11916989 0.047576964 0.11591664 -0.17200083
0.026903182 0.048075646 0.17233855 0.09277502 -0.03649178 -0.011852622 0.19828245 0.16479206
0.07191411 -0.2224652 0.07640028 0.08546853 -0.14493205 -0.20068218 -0.066940084 0.12734255
-0.08961283 -0.2130669 0.06879008 -0.055079356 -0.016722888 0.08965698 -0.09024693 0.016705886
-0.14067382 -0.12641054 -0.068218485 -0.077200696 0.057371467 0.12173045 0.17641696 0.104306966
0.062336236 0.113060474 0.18663692 0.18449709 -0.13989857 -0.13214952 -0.07098436 -0.18926685

l1.bias_ih_l0 f4 [80]
00000000: a4e8 173f 4997 e43e a6cd 5d3e 2840 e83e
00000010: 4ecc 553e 5fae bb3e e2ae 9f3e 09e3 c33e
00000020: e02e ad3c 2ec7 1d3f f544 033f 4f26 00bd
00000030: ea58 593e 7eee aa3e 8fd9 2b3e 826e 3a3e
00000040: eafa 123f e102 ab3e 8ec4 983e 0426 133d
00000050: 00e9 973a 1723 55be 1094 34be b8a4 50be
00000060: b631 06be 000a 2fbe 7412 95bd b0bf edbd
00000070: da55 173e 0e94 45be 1482 d63d 0cb7 fd3d
00000080: 5021 6ebd 9543 17be 9097 fe3c daf7 b4bd
00000090: bac4 313e e028 0e3c c84b 3c3d 7ad0 febd
000000a0: 0d37 bc3d 9517 853d e557 473d 79d5 983d
000000b0: d6f8 4c3d df81 35be f707 6f3e 160a cb3d
000000c0: 759e a5bc ae3b 97be 6801 623d cd1f 873d
000000d0: 9290 10be f94d f7bc 09f9 7a3e bc3d 9b3d
000000e0: 5561 b9be 9f63 82be 21b6 4dbe d182 cfbd
000000f0: b4ae 083f 4fda b73e 14ae b83e 7737 f43e
00000100: e6e7 363e 1970 323e bfc9 cd3e a4e4 d73e
00000110: 7b65 b63e 4a33 003f d4fe 013f 7552 683e
00000120: 215b b53e 0a6f 0e3e d7cd d63e 176f 39be
00000130: 586e 603f be5b a63e 8abc 813d 510f 683e
0.59339356 0.4464667 0.2166048 0.45361447 0.20878717 0.36656472 0.31188112 0.38259152
0.021140516 0.6163205 0.51277095 -0.031286534 0.21225324 0.3338508 0.16782211 0.18206218
0.57414114 0.33400634 0.2983746 0.035924926 0.0011589825 -0.20814167 -0.17634606 -0.20375335
-0.131049 -0.17093658 -0.0727891 -0.11608827 0.14778844 -0.1929476 0.10474029 0.12388429
-0.058137238 -0.14771874 0.03107813 -0.088363364 0.17360201 0.008676738 0.045970708 -0.124421075
0.091901876 0.064986385 0.048667807 0.07462592 0.050041996 -0.17725323 0.23342882 0.09914033
-0.02021716 -0.2953772 0.055177122 0.065978624 -0.14117649 -0.030188547 0.24509062 0.07580134
-0.3620707 -0.2546663 -0.20089008 -0.10132373 0.53391576 0.35908744 0.3607031 0.47698566
0.178619 0.17425574 0.40192983 0.42166626 0.35624298 0.5007826 0.5077946 0.22687705
0.35421088 0.13909546 0.41953918 -0.18108784 0.8766837 0.3249187 0.06334789 0.22662093

l1.bias_hh_l0 f4 [80]
00000000: 3967 dc3e 81f3 f13e 2a71 de3e 21ed 1b3e
00000010: eade 46bc a9fd f23d 932a 2f3f 1a95 bf3e
00000020: 7329 de3e de43 3f3f e97c 283e 275e 343e
00000030: 13d3 e83e d586 2a3e f53d 7e3e 6e35 61be
00000040: 68a9 603f 440b d03e d07e 6d3e ea44 093e
00000050: 800d 933a 70e2 2f3e 40c4 58bc f866 553d
00000060: 9d0d 19be bee6 01be ee4c 353e e638 333e
00000070: 947a f43d 58c7 e9bc b82a f53d 92d4 23be
00000080: e0f7 3a3e 0e18 353e c0fc 263b 80f0 b23d
00000090: 2058 bb3c b817 973d 1838 933c a903 28be
000000a0: 3e99 0ebe a317 763e d25d b63e e761 363e
000000b0: 6110 b2bc a0ff 9fbd 70a8 8c3d 6b64 17be
000000c0: fb8b a9bd 5698 18be 0c8e 043e f817 08be
000000d0: 86a1 48bc 045c 22bd 693f 8b3c f9d8 78be
000000e0: 502e 04bd 27bd 9dbe e299 ac3c ec78 2fbd
000000f0: ee4b 113f 1a56 2a3e 3293 c73e 1747 c23d
00000100: 367f 94bd 48c4 a8bc ca51 2f3f 5dca 5b3e
00000110: c409 823c 142e c23e 970d 9a3e c00d b03d
00000120: 3a40 b33d 6d12 da3e 41c0 593e f411 cdbd
00000130: 2303 0b3f 6c14 ab3e 0f42 433d 8db6 423c
0.43047503 0.4725609 0.43445712 0.15227176 -0.012138108 0.11864788 0.6842434 0.37418443
0.43390998 0.7471293 0.164539 0.17614041 0.45473537 0.16652997 0.24828322 -0.21993038
0.87758493 0.40633595 0.23192906 0.13405195 0.0011219233 0.17176223 -0.013230383 0.05210015
-0.149466 -0.12685677 0.17705128 0.17502174 0.119374424 -0.028537437 0.119710386 -0.15999058
0.1825862 0.17684957 0.002548024 0.08737278 0.02286917 0.07377571 0.017971084 -0.16407646
-0.13925645 0.24032454 0.35618454 0.17810784 -0.021736326 -0.078124285 0.068680644 -0.147844
-0.08278652 -0.14901862 0.12944812 -0.13290393 -0.012245541 -0.039638534 0.01699801 -0.24301518
-0.03227073 -0.30808374 0.02106947 -0.04283993 0.56756485 0.16634408 0.3897949 0.094862156
-0.07250826 -0.020601407 0.68484175 0.21463914 0.015873797 0.3792578 0.30088493 0.085963726
0.087524846 0.42592183 0.21264745 -0.1001319 0.5430166 0.33414018 0.04767042 0.011884344

l1.weight_ih_l1 f4 [80, 20]
00000000: 9f12 c43e ebc2 c7bd 2948 e83e 4729 36be
00000010: 2342 f53d cb78 283e c18c a83d 7855 e93c
00000020: fcc6 0cbd d746 22bc b889 c33e f540 86be
00000030: 6e84 cbbe a0f6 ff3d 1208 333e f351 eebc
00000040: 697b 833e 1ce4 0bbe 5e82 923d 01b4 5fbe
00000050: b49d 95be 603c 673e 0b1d 103c 9b1a 03be
00000060: 9e49 163e dda7 82be 3a3a 9b3e 0df1 813c
00000070: ec96 a83e bb71 a2be b653 883e 0be5 813d
00000080: 1943 13be 248a b8bd 4b95 4fbb c526 1bbe
00000090: d750 41be c742 50bd 620b 6abe 7297 6b3e
000000a0: 7f51 5bbd 2a57 66be 5561 f13d ffec 20be
000000b0: 7330 8dbd 2fb1 8abe e432 d5bd bc2c ecbd
000000c0: e231 80be 0917 40be f395 8cbb 64cd 4d3e
000000d0: 3387 82bd c701 d93d 60c5 23be 87c1 b03e
000000e0: ff23 653c 705c c43c f76c 10be 2afc 28bc
000000f0: 90c6 313f 5ffe aabe d0ca bc3d dcdb e0be
00000100: 69d4 d73c 977d bf3d ddf4 e8be aa41 c6be
00000110: 4177 5cbe 99c3 903e 1fd3 2c3e 7dd2 5e3e
00000120: 1637 26bc 7b83 dbb8 18e5 9b3a 93e8 103e
00000130: 3ca4 a23e 26d1 0ebd 1ffb e83e 9d09 96be
00000140: 2a48 96be ba4e d03e 733a 563d 56db 843e
00000150: 4ff8 473e 2022 52bd cedb 593e d5e7 0ebe
00000160: a3cd 913e 1457 81be 53ac 3abd 05f9 99be
00000170: 73bc e9bd acf4 ce3d cbb5 8b3e 9bfb 1c3e
00000180: 9283 7bbe a3e4 58bd b2e5 873d 8ab7 903e
00000190: 6570 66bf 91f7 573e cc13 36bf 541a c43e
000001a0: 545a f0be bca6 03bf aad4 2c3f d519 1d3f
000001b0: 16d8 bcbd 50fb 12bf c54c d1be 8f47 133f
000001c0: 49a9 2b3f b5ad 5bbf 930b c5be 6998 493d
000001d0: dd97 28bf 27ab ad3d 6af9 37bf 19fd af3d
000001e0: d6b6 943e 7736 0dbe 1df2 263f 61cc a1be
000001f0: 6326 743e 384a 8abe 20a8 f63c 0d5f 03bf
00000200: 7d04 c73d 28a8 143e 9b98 263f f800 af3c
00000210: f0ee 24bf f9f2 113f f81d 1a3f 8071 a93d
00000220: d5fc af3e ece6 2dbe 954b 563e aee8 93bd
00000230: e6ba 5cbd 5a13 693e fd3c 80bd b67f 223e
00000240: 9811 a03d 7909 e8be 2e43 953e a1b2 203e
00000250: c7ba 923d 24a7 c3bd 0ba3 4b3e 0da4 1f3e
00000260: 3d61 0c3e 40f3 b53b 3f7a 9cbb bae4 84bb
00000270: b241 10be 45d1 763d e181 ce3d 8b94 ca3e
00000280: be5a 80be 4647 62bc 5521 613e 42c4 4abd
00000290: 81a4 9c3d c4f3 76be 363c b63e e564 a13e
000002a0: 150b 9d3e 1fe3 8bbd d841 ab3e 9966 0fbe
000002b0: 8c5d babe 198d 433e f322 be3e 5a3c a8bd
000002c0: feb9 c1be 9e56 ae3e 82ad 1f3e 4d64 5a3d
000002d0: 289d 2cbe c2e3 ee3e da4f 363e eec1 b53d
000002e0: 8514 263e 6b7c fcbd ff40 66bd f0fb 663e
000002f0: 7d86 a8bd 50ce 84be 15a7 863e f44c e8bb
00000300: 40f2 38be f3e3 87bd f5b4 17be 6d0f 9cbd
00000310: d402 a6be 3c02 2cbe 9c0b 85ba 8bfe d13e
00000320: f234 45bd bc89 5c3e f561 c83c 866b c5bd
00000330: 0d6b 99bd 05f2 d0bd 898c 383e 4bff 72bd
00000340: ce20 f33d 7ab4 67be 943b 4b3e c83b 0f3e
00000350: 0409 1b3c b16f 10be 1ed1 52bd 363f 20be
00000360: 6865 b6be 5fa0 183b d5f8 573d 41df 943c
00000370: edd4 abbe 7a67 7abc 1334 cabe b327 703e
00000380: 1cef 07be fd1d 1ebe a61a 113f 7e3f 213f
00000390: 5d4f ee3c 5f0f 1abf 0ea6 80be 4988 223e
000003a0: 5287 d23d 84fd 9abe b57a 89bb 8c6f 56bd
000003b0: 7371 cfbe 05f5 aebd ffa1 e2be 1f59 9c3e
000003c0: 4443 02be 7a76 6a3e a210 2dbe 782e 9d3e
000003d0: ac62 6ebe b894 7fbc 62c7 563c 4821 253e
000003e0: 7627 313e 2271 883d d553 903d 9e0c 00be
000003f0: 1df4 173e f35b ae3d 2936 b83d 4e11 933e
0.38295457 -0.097539745 0.45367554 -0.17789184 0.11975505 0.16452329 0.08229972 0.028483137
-0.034369454 -0.009904585 0.3819101 -0.26221433 -0.39749473 0.12498212 0.17483547 -0.02909181
0.25680092 -0.13661236 0.07153772 -0.2184601 -0.2922188 0.22581625 0.008795987 -0.12803118
0.1467652 -0.25518695 0.3031786 0.015862012 0.32927644 -0.31727394 0.26626366 0.063425146
-0.14381064 -0.09010723 -0.003167468 -0.15151508 -0.18878494 -0.050844934 -0.22855905 0.2300699
-0.053544518 -0.22494188 0.11786143 -0.15715407 -0.068940066 -0.27088305 -0.10410097 -0.1153197
-0.25038058 -0.18758787 -0.0042903363 0.20097882 -0.063734435 0.10596042 -0.15993261 0.3452265
0.013985633 0.023969859 -0.14104067 -0.010314027 0.6944361 -0.33397195 0.09218371 -0.4391774
0.026346402 0.09350126 -0.45499316 -0.38721973 -0.21529867 0.2827423 0.16877411 0.21759982
-0.010144969 -0.00010467224 0.0011893837 0.1415122 0.31765926 -0.03486743 0.4550409 -0.2930421
-0.29351932 0.40685064 0.052301835 0.2594859 0.19528316 -0.051302075 0.21275255 -0.13955624
0.284772 -0.25261748 -0.045574497 -0.300728 -0.11412897 0.10105261 0.27287135 0.15330355
-0.24561909 -0.05295242 0.06635608 0.2826503 -0.9001525 0.21090533 -0.7112396 0.38301337
-0.46943915 -0.5142629 0.67512 0.6136754 -0.092209026 -0.5741472 -0.40878883 0.57531065
0.67055184 -0.8581193 -0.38485393 0.049217615 -0.65856725 0.0847991 -0.7186495 0.085931964
0.29045743 -0.13790308 0.65213186 -0.3160124 0.23842768 -0.2700975 0.030109465 -0.5131691
0.09717653 0.14517272 0.6507661 0.021362767 -0.6442709 0.5701137 0.6020198 0.082736015
0.34372583 -0.16982621 0.2092727 -0.072221145 -0.053889178 0.22761288 -0.062616326 0.1586903
0.07815856 -0.45319727 0.29152817 0.15693142 0.07164531 -0.09553364 0.19886415 0.15589924
0.13708968 0.0055526793 -0.004775315 -0.0040555866 -0.14087561 0.06025817 0.10083366 0.39566454
-0.2506923 -0.013810938 0.21985371 -0.049503572 0.07648564 -0.24116427 0.35592812 0.3152229
0.30672517 -0.06830429 0.33448672 -0.14003982 -0.36399496 0.19096793 0.3713604 -0.08214636
-0.37837213 0.3405046 0.15593532 0.05331831 -0.16856825 0.4665814 0.17803898 0.0887488
0.16218765 -0.12328418 -0.05621433 0.22557044 -0.082287766 -0.25938654 0.26299348 -0.0070892517
-0.18061161 -0.06635275 -0.14815123 -0.0762013 -0.32424033 -0.16797727 -0.0010150555 0.41014513
-0.048146196 0.21536916 0.024460772 -0.09639649 -0.074911214 -0.102024116 0.1802236 -0.059325498
0.118714914 -0.2262744 0.19846946 0.13987648 0.009462599 -0.14105107 -0.05146896 -0.15649113
-0.35624242 0.0023288948 0.05272754 0.018172862 -0.33560887 -0.01528346 -0.39492854 0.23452644
-0.13274807 -0.15441127 0.5668129 0.62987506 0.029090578 -0.60179704 -0.2512669 0.15872301
0.102797166 -0.30271542 -0.004195536 -0.052352473 -0.40516242 -0.085428275 -0.44264218 0.30536744
-0.12720972 0.22896758 -0.16900876 0.30699515 -0.23279828 -0.015599422 0.01310906 0.16125977
0.1730021 0.06662203 0.0704724 -0.12504813 0.14839216 0.08513632 0.08994705 0.2872414

l1.weight_hh_l1 f4 [80, 20]
00000000: b033 01bc f8e8 fd3d 949c a03d a945 55be
00000010: c052 143b 4005 463c 8744 5cbe f45b 06be
00000020: e293 1a3e 4c3b 1fbe b294 60be c486 03be
00000030: e087 5b3c a0e6 603e fe07 3abe 914c 0bbe
00000040: d983 fdbd da25 e8bd 601d e2bb 88ab d73d
00000050: f4e2 e23d 922f 04be b4a3 0ebe a04b 3c3d
00000060: 089e 2f3d e801 d33d c51a 5dbe 4cbf 003e
00000070: 06f7 463e d88a 6ebd 7052 053e 6c95 553e
00000080: fef4 36be 4a42 1ebe b0d5 8d3d d299 0abe
00000090: e4bb 37bd 808f f5bd a427 943d ec4d 213e
000000a0: 06e7 13be f05f 0e3d b006 b03d 988f 383e
000000b0: 6c25 bbbd 9af5 5bbe bed2 273e 4859 59bd
000000c0: 7e61 5f3e 1448 a3bd 804b 6cbd 204c 10bd
000000d0: 4851 f5bd 6e8f c1bd d0a9 11bd 5608 8ebd
000000e0: 1b23 43be 40ef e73d 7e9b 1ebe 0063 403e
000000f0: 08e3 34bd 2a80 0e3e c095 5e3e b842 0a3d
00000100: 58d1 e63d d202 ddbd 0bd2 3fbe 0026 7e3a
00000110: e4b6 25be 188e cd3d 0060 6239 fc74 233e
00000120: f42d 38bd 9c5a 07be e028 e3bd fd9e 00be
00000130: 82a3 373e 248f 123e 7444 613e bbe9 37be
00000140: 98c3 5a3d 8086 0cbe 2fae 1dbe 8ada 5c3e
00000150: 8103 50be c02f ee3b 9840 cf3d 9020 76bd
00000160: f020 30bc fcb7 623e 088f 1abe 9091 0a3c
00000170: 42b5 583e 2413 8cbd 8e9c 3c3e 10ad 2a3e
00000180: dabe 94bd 3aba 63be b468 803d f8ee 203e
00000190: ce4a 21be e836 073d 4c52 d63d 3296 1abe
000001a0: dc7d 8ebd a48c f33d 78b9 12bd 9e15 463e
000001b0: f096 133e 223b 043e 5e6b 95bd b73c 20be
000001c0: b49f 873d b474 853d b6f9 b7bd b49e b93d
000001d0: a0cf 163e 3ad5 85bd 48ef e0bc c416 ac3d
000001e0: f002 233e 14be 313e 04a0 803d 00d0 873c
000001f0: 807c c03c ba94 a7bd 1e91 3b3e 00ae b6bb
00000200: 7ab2 07be bc1e 4bbe d811 c3bd a084 2e3d
00000210: 0391 45be 68ea 103d ec3e 503e aeea b0bd
00000220: 4023 0b3b 5a56 d5bd f641 97bd d26a 3abe
00000230: 2041 813d 285e bcbc 8058 38bd c89f 70bd
00000240: 1a74 523e 386a 953d 7447 50bd e3ca 09be
00000250: c80d 9d3d 0050 e839 0ce5 113e 4925 3ebe
00000260: 8a19 313e dc33 f2bd c0d2 c73c a839 de3d
00000270: 409b 293d 2c3a d03d 0558 3cbe c866 3abd
00000280: fdac debd 2aad e9bd 90e3 10bc 30a1 ec3d
00000290: 7830 74bd 058d 56be cead 23be cc75 903d
000002a0: cfdf d2bd f005 8c3d 60e3 123e 0008 bbbb
000002b0: bd09 55be 141e 0fbe f4bb 91bd 658b 17be
000002c0: 2867 283e b8b6 b73d 68e7 6a3d 6fb5 58be
000002d0: 4405 a93d 50a4 8c3c 58e6 20be e0c4 2a3d
000002e0: b01f 24be 60dc b5bc de9c 233e b871 82bd
000002f0: a0be 3e3e b46e e0bd 800c 4a3c e885 7d3d
00000300: b8cb 423e 3af4 1c3e 2e0f 1d3e 084e 36bd
00000310: 6e0f 56be 2c24 17bd 5032 afbd e406 22be
00000320: 049d 7dbd b6d6 e1bd c4db 2ebd 505c 333d
00000330: debf 32be 4019 58bd 5a82 383e c01a c03b
00000340: e8fb 42bd 788f 3a3d 10f4 63bd e498 5ebe
00000350: e8d0 98bd 38b0 30be 9612 88bd 8041 dfbb
00000360: 0010 bf3d ba30 103e 224b 13be f8df a83c
00000370: 0e67 62be 0ce6 143e 18d4 b7bd 10b9 843c
00000380: 0c29 973d 3ea6 4b3e ea04 1f3e 7072 b03d
00000390: fa76 2c3e 30ac a23d 509b b23d 9a88 a4bd
000003a0: 4097 2cbb b6f6 4a3e 3080 d8bc 9050 1d3c
000003b0: 4867 a33d 329b 1e3e 8ca2 093e c0ad 1d3d
000003c0: 2cd0 323e d008 b9bc ab24 64be c0d5 f43d
000003d0: 1cd8 3a3e 8077 913b ea7f 303e e008 aa3b
000003e0: 0884 5f3e d4d2 e9bd b670 c8bd 898f eabd
000003f0: d0ae 663d 86dc 54be da46 bdbd 22ae 2cbe
-0.007885858 0.12397951 0.07842365 -0.20827354 0.002263233 0.012086213 -0.21510516 -0.13121015
0.15095475 -0.15549964 -0.21931723 -0.12844378 0.013399094 0.21962976 -0.18167111 -0.13603427
-0.123786636 -0.113353446 -0.0069004744 0.10530764 0.11078444 -0.12908772 -0.13929635 0.04597056
0.04287532 0.10303098 -0.21592243 0.12572974 0.1943017 -0.05823788 0.13019729 0.20857781
-0.17866895 -0.15454975 0.06925523 -0.1353524 -0.04485692 -0.11990261 0.07234123 0.15752381
-0.14443597 0.034759462 0.085950255 0.18023527 -0.09137997 -0.21480408 0.16388986 -0.05306366
0.21814534 -0.07972732 -0.05768919 -0.03522885 -0.11978394 -0.09451185 -0.035562336 -0.06935184
-0.1905636 0.1132493 -0.15489003 0.18787766 -0.044161826 0.13916078 0.21736813 0.033755034
0.11270398 -0.107915536 -0.18732469 0.00096949935 -0.16183048 0.10036868 0.00021588802 0.15962595
-0.0449657 -0.13218158 -0.11091781 -0.12560649 0.17933467 0.14312416 0.21998769 -0.17960255
0.05340919 -0.13723183 -0.15398477 0.21567741 -0.20313837 0.007268876 0.10119742 -0.060089648
-0.01075004 0.22140497 -0.15093625 0.008457556 0.21162894 -0.06839588 0.18419096 0.1666758
-0.072629645 -0.22239009 0.062699705 0.1571616 -0.15751192 0.033011347 0.10464916 -0.15096357
-0.069575995 0.118920594 -0.035821408 0.19344184 0.14413047 0.12913182 -0.07295869 -0.15648161
0.06622258 0.065164 -0.089831755 0.09063473 0.1472764 -0.0653481 -0.027457848 0.0840278
0.1591909 0.17357665 0.062805206 0.016578674 0.023496866 -0.08182664 0.18317077 -0.0055749416
-0.13251677 -0.19835943 -0.09524888 0.04260695 -0.19293599 0.035379797 0.20336503 -0.086385116
0.0021230727 -0.10416861 -0.07385628 -0.18204811 0.0631125 -0.022994116 -0.045006275 -0.05874613
0.20552102 0.0729565 -0.050849393 -0.13456301 0.07668644 0.00044310093 0.1424753 -0.1856891
0.17294899 -0.11826298 0.024392486 0.10850841 0.041407824 0.101673454 -0.18392952 -0.045508176
-0.10872839 -0.114099815 -0.008843318 0.115541816 -0.059616536 -0.20952232 -0.1598427 0.07053718
-0.10296594 0.0683707 0.14344549 -0.005707741 -0.20804496 -0.13976318 -0.07115927 -0.14799269
0.16445601 0.08970398 0.057349592 -0.21162961 0.082529575 0.017168194 -0.15712869 0.04169166
-0.16027713 -0.02219981 0.15977809 -0.063693464 0.18627405 -0.10958615 0.012332082 0.06189528
0.19023025 0.1532754 0.15337822 -0.04450801 -0.20904323 -0.03689973 -0.08554518 -0.15822941
-0.06191732 -0.11027281 -0.042690054 0.043789208 -0.17456004 -0.052758455 0.18018475 0.005862564
-0.047603518 0.04554698 -0.055652678 -0.2173801 -0.07461721 -0.17254722 -0.0664417 -0.006813228
0.09329224 0.14081088 -0.1438413 0.02061461 -0.22109625 0.14540881 -0.089760005 0.016201526
0.07380876 0.19887635 0.15529218 0.08615577 0.16842261 0.079429984 0.0872103 -0.08033867
-0.002633527 0.19820675 -0.026428312 0.009601727 0.07978684 0.1548889 0.13440913 0.03849578
0.17462224 -0.02258721 -0.22279613 0.11954832 0.18246502 0.0044392943 0.17236295 0.0051890463
0.2182771 -0.114171654 -0.09787123 -0.114531584 0.056319058 -0.20787248 -0.092420295 -0.16863301

l1.bias_ih_l1 f4 [80]
00000000: 6386 be3e 0841 8abd 640e b2be a5da 793e
00000010: 6f0b 273e efe1 293f 25dd 883e def9 15bd
00000020: 6b88 5fbe 8b9e 443e 3ce3 71b9 3612 003d
00000030: eeba 22bd bcb8 abbd bd99 bc3c e20b afbc
00000040: 50cb b53e 0088 e73d c5f9 a2bd d015 be3e
00000050: d47b ff3d 0d65 30be b49f abbd d530 62be
00000060: 8e6f 3e3e 6c84 40bd 28f6 0f3d a792 21be
00000070: 6a4d 483e e8e5 c8bc 5fa6 3fbe 60bd ff3c
00000080: c073 5b3d 343f 75bd e595 44be c633 1c3e
00000090: 6cca 573e d563 d8bd 4022 753d f086 ff3d
000000a0: 9f93 683e 66b2 f0bb 4758 f7bc b391 98bd
000000b0: b76f 01be dad9 30be 197c c53d 4fe2 373e
000000c0: 578a 753e d313 803e 4452 4c3e db51 6ebd
000000d0: 6cb8 b1bd 2781 81be 9137 883d 6ea2 25be
000000e0: 8dec e63c 18ec 233e d222 b03d 8bf1 713d
000000f0: eafd 0abd 677c 833e bd9d 9d3d ff1d c5bd
00000100: f3ee 093e 60b2 a33e c8bb 053e ab9b b2bd
00000110: d2a3 60be 733b 3b3e 392c dbbd 69c9 8939
00000120: 6642 81be e47e f83d 3125 d53d b0cc 86bd
00000130: e899 493e ead3 a33d e944 43be ca98 913e
0.37211904 -0.06750685 -0.34776604 0.24399813 0.16312955 0.6636037 0.2673122 -0.036615245
-0.21829383 0.19201104 -0.00023068202 0.031267367 -0.03972905 -0.08384845 0.023022527 -0.02136797
0.35506678 0.11305237 -0.07957796 0.37126017 0.1247479 -0.17226048 -0.0838007 -0.2208894
0.18597242 -0.047001287 0.035146862 -0.157786 0.19560781 -0.02452369 -0.1871581 0.03121823
0.053577185 -0.05987473 -0.19197805 0.15254125 0.21073312 -0.105659164 0.059847116 0.12476909
0.22712563 -0.0073454855 -0.030193461 -0.07449665 -0.12640272 -0.17270604 0.096428104 0.17957424
0.23978554 0.25015125 0.19953257 -0.058183532 -0.08677754 -0.25293848 0.066512235 -0.16175243
0.028188968 0.16008031 0.086003914 0.059068244 -0.033933558 0.2568085 0.07696102 -0.09624862
0.13470058 0.31972027 0.13059914 -0.087210976 -0.21937492 0.18284397 -0.10701794 0.00026280739
-0.2524597 0.121335775 0.10407484 -0.0658201 0.19687617 0.07999404 -0.19069256 0.2843688

l1.bias_hh_l1 f4 [80]
00000000: 8df1 573e 7727 ab3c a8b6 db3c e402 08bc
00000010: 7dd0 b8bd 7dd9 dd3e e1d4 c03e 432f 313e
00000020: e547 f63d 7254 65bb 8ce8 06be 9c1d d23e
00000030: bcdc d83d c3c8 853d c48f a73d 4878 49be
00000040: f930 413d 59a4 523b daef 59be e1b6 a73e
00000050: 8a5a 13be fe69 2a3e 504d 46bd 20aa 6bbc
00000060: d0b0 71bd a567 2abe 38b7 013d 9a36 49be
00000070: 70e4 dd3d b67b 573e 8ea9 543e 4540 5bbe
00000080: 887a 533e 12fa 333e d8d0 9a3d b21c 153e
00000090: 24a0 b93d 60ae c03c c814 70bd 1e25 19be
000000a0: 90aa 973e 7e33 7bbe f70b 973d cf0a 023e
000000b0: d309 87be e9d7 0fbe b69d 1b3e 7da2 173e
000000c0: d282 b0bc 2ff1 593e 6376 0b3c 37bf 44bd
000000d0: cbc4 2a3d ad78 7d3c 744b 9b3d 2f21 203d
000000e0: 8086 0abd 2c8b 243e 1ea6 a53d 2d30 0ebe
000000f0: dedf 2d3d b39f 823e d564 7fbe c19b 6dbd
00000100: 0831 b73d a910 ca3e 8740 cc3e b73e 8c3e
00000110: 604e 0ebe 8dc6 593d 5917 a73d aca3 793e
00000120: 40e1 25bd 0068 32be 3b7e a3be 7723 44bb
00000130: 69e2 1ebd c553 1c3e 3d31 0b3e 4c03 843e
0.21088238 0.020892842 0.026820496 -0.00830147 -0.09024141 0.43329993 0.37662414 0.17303185
0.120254315 -0.003499296 -0.13174647 0.41038215 0.10588977 0.06532433 0.08181718 -0.1967479
0.047165845 0.0032141416 -0.21282902 0.32756713 -0.14390007 0.16641995 -0.048413575 -0.014383823
-0.059006512 -0.166411 0.03166887 -0.19649735 0.108345866 0.21043286 0.20767805 -0.21411236
0.2065221 0.17575863 0.07559365 0.14561728 0.090637475 0.023520648 -0.05861357 -0.14955565
0.29622316 -0.24531361 0.07375329 0.12699436 -0.26374683 -0.14047207 0.1519688 0.14808078
-0.021546755 0.2128341 0.008512112 -0.04803392 0.041691583 0.015470666 0.07582751 0.039094146
-0.033819675 0.16068715 0.08088325 -0.13885565 0.042449825 0.25512466 -0.24940808 -0.058009867
0.08944899 0.39465836 0.3989298 0.27391598 -0.13897085 0.05316787 0.0815875 0.24378842
-0.04049802 -0.17422485 -0.31932244 -0.0029928365 -0.03879014 0.1526633 0.13593002 0.25783765

l2.weight f4 [3, 20]
00000000: a71a 12be 463c 2dbd f796 943b f9a4 0fbe
00000010: 0219 b53c 9f8b 0e3f 6aef 0c3e 6657 4b3e
00000020: a30c 9a3e 785a 3cbe 2f25 7e3d 3185 be3d
00000030: 2107 253c 6666 d8bc fda4 a23d 4abd ef3d
00000040: 0d71 d6bb a5f0 403d 7d2d 943e 3631 b93e
00000050: 89d0 bd3e be8b d23d b0c8 36be 7574 fd3e
00000060: 2361 e2bd dcea b1bd a5bb 00bf 70dc e2bd
00000070: 5f04 d53d 40b8 493e fddf 243e c2b8 2fbe
00000080: 600e 59bd a013 1f3d e8db 443e 6107 cdbd
00000090: 1b3f fb3e ce73 123e 1f9e b53e 2d0a fa3d
000000a0: 41b3 433e ee5e 5ebe 6e6a 473d cec4 9b3c
000000b0: 0325 06be 1a71 a2be c409 c53e f221 883e
000000c0: db57 213e 9759 8c3e 28bb d93d 721c a7be
000000d0: b2bd acbd 99e4 5bbd 84f2 933b 8c3f 1bbe
000000e0: c7e9 a6be 2249 f03d 0980 0a3d bed5 44be
-0.1426798 -0.04229381 0.004534598 -0.14027776 0.022106651 0.55681795 0.13763204 0.19857559
0.30087766 -0.18393886 0.06204718 0.09302748 0.0100725 -0.026416015 0.07941625 0.11706026
-0.0065442384 0.047104497 0.28940955 0.36170357 0.37073162 0.1028056 -0.17849994 0.49502912
-0.110536836 -0.08687374 -0.5028632 -0.11077201 0.10401224 0.19699192 0.1610107 -0.17160323
-0.052992225 0.038837075 0.19224513 -0.10011173 0.49071583 0.14301988 0.354722 0.12208972
0.19111349 -0.217159 0.048685484 0.019014742 -0.13100056 -0.31726915 0.38484013 0.26588398
0.1575617 0.27412102 0.106314 -0.3263889 -0.08434619 -0.053684805 0.004514994 -0.1516096
-0.32600233 0.11732699 0.03381351 -0.19222161

l2.bias f4 [3]
00000000: 65d4 5f3e 5d3f 0c3e 4cb6 8b3e
0.21858366 0.13696046 0.2728752
